MB_FB_model/CKC STkernels-good parameters.npz (npz, 323563 bytes, 5 tensors)

ST_kernel (column-major) f8 [50, 401]
0	0xbf81120f17287a66	-0.008335225958089509
1	0xbf8018ef749360bc	-0.007860060448749422
2	0xbf7fd33898b05ac7	-0.007769795493934146
3	0xbf7fbdef2596ac39	-0.007749494712167731
4	0xbf7fd890b71fb4fe	-0.00777489213394955
5	0xbf80cddbb8e2b520	-0.008205143527755754
6	0xbf8318638639bb5e	-0.009323861631143234
7	0xbf832e20c8effd7e	-0.009365326053738295
8	0xbf80d1f2b1a9bf48	-0.00821294407543828
9	0xbf7c27bba66b80e9	-0.006873829849354454
10	0xbf76d0a24c7d0866	-0.0055700626178937
11	0xbf709e7eddc095f3	-0.004057403155490291
12	0xbf62b959e4890460	-0.0022856479374984556
13	0xbf514b33e143665e	-0.001055527366636964
14	0xbf260641277efa30	-0.0001680330785784486
15	0x3f2d99be3561f060	0.00022583433991829865
16	0xbf19594827f7bf60	-9.669783502608059e-05
17	0xbf4cd8e7794c750c	-0.0008803491824413158
18	0xbf4f1fcf87d57ee8	-0.0009498370488180948
19	0xbf363cfbd77c2310	-0.0003393282745354645
20	0xbf304e9e890b8d40	-0.000248826699175992
21	0xbf47f0d1821f594c	-0.000730612086267604
22	0xbf4e2d286e022eb4	-0.000920910588335619
23	0xbf548d4b11ad2ba2	-0.0012543900581529562
24	0xbf5ad2bde1f17126	-0.001637158806054259
25	0xbf5852b807db59a6	-0.0014845654654230627
26	0xbf5d6654ede68337	-0.0017944173228913848
27	0xbf5e6da3c2ce6572	-0.0018571948269026886
28	0xbf661698508610ca	-0.002696321000430134
29	0xbf6ea5d83d9c270e	-0.0037411902857272866
30	0xbf70bdd12652e4f8	-0.00408727358915794
31	0xbf72de43244b9d5e	-0.004606497070859332
32	0xbf75aa9d1aae6bd2	-0.005289663017630413
33	0xbf789ede216dc291	-0.006010883042890784
34	0xbf7afe932b20fa3a	-0.006590437771647967
35	0xbf7bee4ba6b88254	-0.006819053185183128
36	0xbf79bee07e4827b7	-0.006285550047786906
37	0xbf7997baecf128ba	-0.006248216798733159
38	0xbf790ae773c96a18	-0.006113914595142343
39	0xbf798c411610756f	-0.00623727249424398
40	0xbf791c81118cefcc	-0.00613069932370176
41	0xbf78e4ff63545a43	-0.00607776413860123
42	0xbf7823b15164b82d	-0.005893414161887417
43	0xbf73b9c6681b6b86	-0.004815840745972083
44	0xbf68fb6f72429658	-0.0030495812116722414
45	0xbf42d181503dadef	-0.000574291364029587
46	0x3f3761e3a162de1a	0.0003567867983167175
47	0x3f5620981f5494c2	0.001350544507041904
48	0x3f6303be721db016	0.0023211211818559103
49	0x3f5dbda1627f4c24	0.0018152309439656367
50	0xbf806fedc5db9e02	-0.008025987244265845
51	0xbf7eca0e10aeae9a	-0.007516913358738409
52	0xbf7ebacd2c321bba	-0.007502366500495345
53	0xbf7ecf4dcfa44b1a	-0.007521919202434524
54	0xbf7ef904dc9b3243	-0.007561701766189591
55	0xbf806e5fbe438db9	-0.008023021692173825
56	0xbf82d3825a198261	-0.00919248425924585
57	0xbf82f570f2a97be7	-0.009257204442460988
58	0xbf80b1d2b2960b68	-0.008151670527473079
59	0xbf7c328402680f3a	-0.0068841129891586365
60	0xbf76ccc83be9f854	-0.005566389240469222
61	0xbf70c5cb81c76abf	-0.004094881962795226
62	0xbf62f145c4bbc410	-0.0023123133340665694
63	0xbf530819eb6c84b2	-0.001161599456914336
64	0xbf32e45fa95186a0	-0.0002882703350391789
65	0x3f1b0aa884669800	0.00010315564677529365
66	0xbf303f6208200058	-0.0002479185424135769
67	0xbf50942bf60464ae	-0.0010118893915829585
68	0xbf5087b0ddc13500	-0.0010089137276907967
69	0xbf3ddfaaa648c560	-0.0004558364510414883
70	0xbf388139d3cdc208	-0.00037391340065709476
71	0xbf4814e111ae5d3c	-0.0007349108667424119
72	0xbf448af63c98b354	-0.000626917107359052
73	0xbf4c3363c3873264	-0.0008606183173980983
74	0xbf54e998cab66060	-0.00127639695242545
75	0xbf56c673ca79a6ce	-0.0013900881548586821
76	0xbf5f88edca5962e8	-0.0019247362300999719
77	0xbf6158c61745d5eb	-0.0021175259554932955
78	0xbf683c99991d6ec9	-0.002958583828258064
79	0xbf70519195374490	-0.003984039958099164
80	0xbf71bce93335e019	-0.004330550134334054
81	0xbf7444eefc0a0c5d	-0.004948552640260476
82	0xbf776117160bc545	-0.005707826786179486
83	0xbf7a0346de2f5590	-0.006350781276485931
84	0xbf7beffa1e9bce0e	-0.006820656804609649
85	0xbf7c69c75008b6db	-0.006936815800640618
86	0xbf7a386f7c72aa56	-0.0064014773298973395
87	0xbf7a0c7d31cfef8e	-0.0063595667279478085
88	0xbf796c819de714b7	-0.006206995311406497
89	0xbf798b507d43da4a	-0.006236376201050728
90	0xbf78b6c995d0de8c	-0.006033694689044144
91	0xbf77e0fcafa936e2	-0.005829798751234102
92	0xbf7758e2275e3adc	-0.005700000203332247
93	0xbf730a0cabd89701	-0.004648255822336856
94	0xbf68aa3eb6a9c9c6	-0.0030108666299437396
95	0xbf4728ef2b0d0c5a	-0.0007067840398139555
96	0x3f130cc1cd8252ec	7.266934278711182e-05
97	0x3f4f00234cd99b6c	0.000946061359809442
98	0x3f5d3ce5c108e448	0.0017845386211219495
99	0x3f551c7d2923b069	0.0012885305664509744
100	0xbf7fb1d61304592d	-0.007737957217861341
101	0xbf7d67c4d66899b2	-0.007179039856544044
102	0xbf7d66ec88b2b3ab	-0.007178234063002368
103	0xbf7d6f871c4fc2bd	-0.007186439300298883
104	0xbf7d7ff96e2b0cdf	-0.007202123963625711
105	0xbf7f6159cbe798ad	-0.007661200301731491
106	0xbf82213868bdf303	-0.008852425285789339
107	0xbf824897bc3ba9eb	-0.008927522117535744
108	0xbf801d87124a278a	-0.00786881947103148
109	0xbf7b118f3ccebad2	-0.006608542939757727
110	0xbf75cb13e29d00fd	-0.005320623089403617
111	0xbf700d22d5161aca	-0.003918777526797876
112	0xbf61b5c777e7101b	-0.0021618743769256216
113	0xbf5127f3e8858219	-0.0010471231381289413
114	0xbf2bd0466f043f30	-0.00021220073495741834
115	0x3f24e4e342e4f7e0	0.00015940927682750374
116	0xbf2b620b13fcc5a0	-0.00020891556959549713
117	0xbf4f0702a6e37208	-0.0009468806217927681
118	0xbf4f884d0fd8b670	-0.000962293269997706
119	0xbf40d9d52a94ae90	-0.0005142489291407194
120	0xbf3eedf569ec58b8	-0.0004719471125310781
121	0xbf4857933d58b590	-0.0007428616469888228
122	0xbf37a36b525d0ec8	-0.0003606926933239327
123	0xbf3f676d9f134dd0	-0.0004791872625677625
124	0xbf4e0167b570441c	-0.0009156948461869238
125	0xbf54b6e03cd39509	-0.0012643041439386901
126	0xbf60436493ab6847	-0.001985260428551991
127	0xbf628ce838dc87c9	-0.0022644553745445367
128	0xbf691994305867e6	-0.0030639547646957753
129	0xbf70bf355712078d	-0.004088600501860895
130	0xbf723b92dae90ff4	-0.004451345112617123
131	0xbf74da4a59d6f41b	-0.005090990479797798
132	0xbf783a1af2a84611	-0.00591478849902806
133	0xbf7a8c22e43d82fc	-0.006481300635500228
134	0xbf7bf35b6e113e27	-0.006823880336994693
135	0xbf7c1017719690c0	-0.006851283623664439
136	0xbf79f54a847bf408	-0.006337443431900354
137	0xbf7a1fd1d5d15399	-0.006378001850937753
138	0xbf79b3f335bd9c7a	-0.006275129355208903
139	0xbf7973c13393e7c2	-0.006213907902969442
140	0xbf783c727a47048a	-0.005917021921448948
141	0xbf76e1fc4fac8f35	-0.005586610403756788
142	0xbf765f432eca5a06	-0.005461943085399051
143	0xbf72281adf2cbe9f	-0.004432778327824543
144	0xbf6785bcbfc42ab4	-0.0028713881021123714
145	0xbf47dd74913b03fa	-0.0007283038307478445
146	0xbf159b4c321ffcc8	-8.242275774249512e-05
147	0x3f45bcda644edda7	0.0006633821836804957
148	0x3f569a1c86a6b204	0.0013795164655717737
149	0x3f4c370736535c24	0.0008610520568720398
150	0xbf7fc228fe69bded	-0.00775352490619195
151	0xbf7d40483896e3e4	-0.007141382325635857
152	0xbf7d55078f383205	-0.007161168603044836
153	0xbf7d4cced5c4f61e	-0.007153327893602261
154	0xbf7d45ffeb7a7d2e	-0.00714683502852091
155	0xbf7f3e78ff5b90f7	-0.007627937933396326
156	0xbf82188e0036b961	-0.008835896855853677
157	0xbf8243af815801d5	-0.008918162474402283
158	0xbf802c6d8d935627	-0.007897239573519134
159	0xbf7b43b9a9efe562	-0.006656384705814618
160	0xbf763687c2ea1f9c	-0.005423097913656163
161	0xbf70ea9ddd6c4f35	-0.004129997882745863
162	0xbf63c5531dc7172e	-0.0024134276738746662
163	0xbf558e91f77dec42	-0.0013157296616259783
164	0xbf4165be313e1008	-0.0005309275315856796
165	0xbf258f118f8d5180	-0.0001644810615980645
166	0xbf419e2c01c60978	-0.0005376543881967918
167	0xbf53d8a46e579b8a	-0.0012113195201608217
168	0xbf54bdce29a19a5c	-0.0012659562403542135
169	0xbf4e4da18a3e6cbc	-0.0009247816819767589
170	0xbf4e40526cafa340	-0.0009231951202056457
171	0xbf51fb7817f85728	-0.0010975525655160887
172	0xbf3f83ace13d7be0	-0.0004808709211285272
173	0xbf3f5ce9839a6120	-0.000478560457489079
174	0xbf4dfc11ad664530	-0.0009150587382455218
175	0xbf5882838e0d0464	-0.0014959606853184532
176	0xbf63d4be3f30aae8	-0.0024207797773859625
177	0xbf66c0e611cbb54f	-0.002777528147240339
178	0xbf6ccd9c2ede01cc	-0.00351601128107879
179	0xbf72489385dc21d7	-0.004463745366372915
180	0xbf73b4c3b180a300	-0.004811062266562471
181	0xbf7661eb64a9f306	-0.0054644770667635675
182	0xbf79d5afc16a0208	-0.006307302994742255
183	0xbf7c0517ef1e7fec	-0.006840795032900342
184	0xbf7cf67d9dd46268	-0.0070710093398465915
185	0xbf7cb3619d0a5069	-0.007007008841032649
186	0xbf7aada5cc7712a1	-0.006513259554996737
187	0xbf7ae6abb2aebc97	-0.006567640967588015
188	0xbf7a812d5a601707	-0.006470849190014289
189	0xbf79b325cb80732b	-0.006274364124718083
190	0xbf7809dc6dd8652d	-0.005868779231172722
191	0xbf7621604710c2c9	-0.0054029236644487855
192	0xbf75e369cd03afe9	-0.005343831333657769
193	0xbf7202b8285285ca	-0.004397124638815206
194	0xbf6870b2742b2796	-0.0029834256577929248
195	0xbf51901c650e0e0a	-0.001071956376308305
196	0xbf43626ef8db2d7d	-0.0005915681701593036
197	0x3f11dc7195ff5340	6.813472054940668e-05
198	0x3f45fe11e07c11be	0.0006711566247479745
199	0x3f23b97aff838920	0.00015048624459896524
200	0xbf7f96d46388cbd8	-0.007712201732419786
201	0xbf7ce7ec16b938e4	-0.0070571157662710805
202	0xbf7d3d6f5caef2ae	-0.007138667114244752
203	0xbf7d3be1d0296383	-0.007137186129136166
204	0xbf7d2b3e5e85f8b9	-0.007121318464099407
205	0xbf7f546ae74b27ba	-0.007648866264114257
206	0xbf8234d140b4764a	-0.008889803683412318
207	0xbf827824cd1490da	-0.009018218525462297
208	0xbf808c9308bd91a0	-0.008080624298323624
209	0xbf7c33e5b53b9216	-0.006885430618897922
210	0xbf77763db32a82f5	-0.0057279977942534714
211	0xbf72923f5fab70cc	-0.004534003785661333
212	0xbf6743cc60b59f1d	-0.002839945960363978
213	0xbf5cd280fbe67148	-0.0017591724023083444
214	0xbf50ae0fa0bfdcbe	-0.0010180618874054271
215	0xbf4512f1b4002ba4	-0.0006431274596264591
216	0xbf506843f404f4b2	-0.0010014213185763174
217	0xbf5a0a17fcc9d73a	-0.0015893205883492204
218	0xbf5b194aa98e9a7e	-0.0016539792179429964
219	0xbf5729aad3c631c8	-0.0014137428507608896
220	0xbf577e513d615e0c	-0.0014339249951457215
221	0xbf58aa749dd91706	-0.0015054835161136273
222	0xbf454fe85c861b6c	-0.0006503948762180806
223	0xbf416edf4de17694	-0.000532015834106852
224	0xbf4fc0454e929560	-0.0009689653790202861
225	0xbf5cbfdc3c2ebcce	-0.0017547274335177224
226	0xbf67588b6491d866	-0.0028498384968385524
227	0xbf6b02b60d4003b8	-0.0032971912096404175
228	0xbf705c8916855470	-0.003994498729601323
229	0xbf7417983d2c6f54	-0.004905314143595369
230	0xbf757af0d2f457b0	-0.005244198531064656
231	0xbf783439c6ee2670	-0.005909181300816621
232	0xbf7b9e2d062a2f87	-0.0067426451447650864
233	0xbf7d531dafa26ac1	-0.007159343682497877
234	0xbf7dccf2384ac466	-0.007275530024956378
235	0xbf7d46bb486a35d2	-0.007147533010209499
236	0xbf7b50a273d1ec58	-0.0066686960027438555
237	0xbf7b8c391613a538	-0.006725523942102733
238	0xbf7b2b2f814e57ba	-0.006632981840899827
239	0xbf79c734a5c44b12	-0.0062934929412843555
240	0xbf77d51fadb32f38	-0.005818485016060575
241	0xbf7589cf206685fe	-0.005258378112928506
242	0xbf758950489290a2	-0.005257905585640684
243	0xbf71f5c16be9e83a	-0.004384761383898145
244	0xbf6959de6fe52edf	-0.0030946106409482778
245	0xbf5790f87ff5f993	-0.0014383723026579517
246	0xbf522abb3a2d8e20	-0.0011088207617938675
247	0xbf429b5296b747e0	-0.000567832304506629
248	0xbf1f3bfef597b220	-0.00011914962433196745
249	0xbf45465fcaa7d6d8	-0.0006492583973442779
250	0xbf8127f153d5ccbc	-0.00837696587652769
251	0xbf7f788c8879ea4c	-0.007683323819601084
252	0xbf7fc0604a0aedf9	-0.007751823549081654
253	0xbf7f97fbef66d465	-0.007713302728395187
254	0xbf7f931c33df48fa	-0.007708654562480039
255	0xbf80ed035eff40b3	-0.008264566742497292

ssSTk f8 [50, 401]
0	0xbe9b881b37d442b4	-4.102537827935951e-07
1	0xbea03557d19832ab	-4.830471055941443e-07
2	0xbea2bcb3749807db	-5.584094903701062e-07
3	0xbea5570dd7ae4bc7	-6.359831979822484e-07
4	0xbea800e69acde087	-7.153606041829037e-07
5	0xbeaab64ca2f66eb5	-7.960828209310242e-07
6	0xbead72dbb193bfdb	-8.77638601041657e-07
7	0xbeb018dd57e74e6e	-9.594635624791454e-07
8	0xbeb176cd6162daee	-1.040939769531779e-06
9	0xbeb2d05b9f05af25	-1.121395708815256e-06
10	0xbeb4226b4503c556	-1.2001066985147086e-06
11	0xbeb569a609fc22d5	-1.2762957694608676e-06
12	0xbeb6a27dae9cb4fe	-1.3491350565151689e-06
13	0xbeb7c92e1f9d385b	-1.4177477382806855e-06
14	0xbeb8d9c03c890be5	-1.4812105623297276e-06
15	0xbeb9d00d4d778b15	-1.5385569919138432e-06
16	0xbebaa7c3315b444a	-1.5887810084667491e-06
17	0xbebb5c694df7ec56	-1.6308416020949677e-06
18	0xbebbe96649d32457	-1.663667979644761e-06
19	0xbebc4a069792ef62	-1.686165516808434e-06
20	0xbebc7983d93415c0	-1.6972224770606803e-06
21	0xbebc730d2050cdf3	-1.6957175159704808e-06
22	0xbebc31d00f532051	-1.6805279845922593e-06
23	0xbebbb102dde50cd3	-1.650539040180117e-06
24	0xbebaebef41392d88	-1.6046535663724306e-06
25	0xbeb9ddfe36e047ce	-1.5418028982455768e-06
26	0xbeb882c4aeca2341	-1.46095834022333e-06
27	0xbeb6d6110ec98553	-1.3611434567451064e-06
28	0xbeb4d3f9877c254a	-1.2414471068387342e-06
29	0xbeb278eb2fcff2e9	-1.1010371843138254e-06
30	0xbeaf8373b30f5f27	-9.391750151977719e-07
31	0xbea957611c352872	-7.552303532912113e-07
32	0xbea26945402dfb36	-5.48696903343452e-07
33	0xbe956bf4e743122f	-3.1920828936726427e-07
34	0xbe71dd94e9b70f34	-6.655437306048467e-08
35	0x3e8c17917ef15891	2.0930218577975065e-07
36	0x3ea10d7bf4c94582	5.082092485264e-07
37	0x3eabd80042a0b151	8.29808532336972e-07
38	0x3eb3b039e8308dad	1.1735191101168915e-06
39	0x3eb9cfe5fe53d977	1.5385212404607422e-06
40	0x3ec02333a35a8286	1.923740707024664e-06
41	0x3ec386fc3301911b	2.3278338617140575e-06
42	0x3ec70fce28d7f4f2	2.7491735810058154e-06
43	0x3ecab9880f8de1b4	3.185836359550544e-06
44	0x3ece7f5f2b091b54	3.6355907797909967e-06
45	0x3ed12ded037256ea	4.095887610541222e-06
46	0x3ed3246607db7710	4.563851801112911e-06
47	0x3ed51fa92f383382	5.036276650394256e-06
48	0x3ed71be8ef63eae1	5.509620441874613e-06
49	0x3ed914fb7d816a37	5.980005845252762e-06
50	0x3edb065b7c288be5	6.443222391658091e-06
51	0x3edceb2997851bb7	6.894732330237533e-06
52	0x3edebe2f2467a2f2	7.329680164571501e-06
53	0x3ee03cf0eab33530	7.742906140607327e-06
54	0x3ee10c344a9acbf4	8.128963901432217e-06
55	0x3ee1c9d0c704805f	8.482142420052235e-06
56	0x3ee27294acb0f483	8.796492144575466e-06
57	0x3ee30331a0057a73	9.065855011311887e-06
58	0x3ee378412aa2cf18	9.283897572799233e-06
59	0x3ee3ce4988be59d3	9.444145937992463e-06
60	0x3ee401c27106ccdb	9.540020557397024e-06
61	0x3ee40f1979c11f6f	9.564868200709097e-06
62	0x3ee3f2b5aba069d7	9.511987958223216e-06
63	0x3ee3a8f9d121d76e	9.374648048270542e-06
64	0x3ee32e452d6ef298	9.146091015093964e-06
65	0x3ee27ef28da34e0e	8.819526943793499e-06
66	0x3ee1975623837713	8.388117848697211e-06
67	0x3ee073bb460f2098	7.844961318684542e-06
68	0x3ede20c7fa3c2f36	7.183087209271767e-06
69	0x3edad319eb5b9dd9	6.395486413991269e-06
70	0x3ed6f6f1cd079cf3	5.4751937601301194e-06
71	0x3ed2850c8923ced3	4.415445930872503e-06
72	0x3ecaed44e1290f21	3.209928544552462e-06
73	0x3ebf1710307d7cbe	1.853113817028119e-06
74	0x3e96dcb7cb200aa6	3.406730214596032e-07
75	0xbeb6509bf6131242	-1.3300704824619108e-06
76	0xbeca8165c57ba18a	-3.1596969555134083e-06
77	0xbed595cf3232a2c4	-5.146310999717174e-06
78	0xbede8e82434ab1b5	-7.28527907216082e-06
79	0xbee41161b2aab107	-9.569118977502845e-06
80	0xbee9998ac0838830	-1.2206923216632413e-05
81	0xbeef003dfbc1b8db	-1.478240289306788e-05
82	0xbef2517d0cfde0f4	-1.7469705937384888e-05
83	0xbef53c73e4424c80	-2.0252364507711024e-05
84	0xbef83c28579e4538	-2.3112288068787376e-05
85	0xbefb4b5e3641aa84	-2.6029974279510277e-05
86	0xbefe647edfc60c7b	-2.898460478341053e-05
87	0xbf00c0cbd1d52b7e	-3.1954021532407624e-05
88	0xbf024e28a2c09d2b	-3.491460333320881e-05
89	0xbf03d6f192c88acf	-3.7841078981656216e-05
90	0xbf05578282d4e450	-4.0706320172786124e-05
91	0xbf06cbf119ee4541	-4.348115475417492e-05
92	0xbf0830081f66fb7a	-4.613423145682131e-05
93	0xbf097f453d067a3e	-4.8631954658197033e-05
94	0xbf0ab4d960c82724	-5.093849549460256e-05
95	0xbf0bcbaba2a43cde	-5.301587619232507e-05
96	0xbf0cbe5e61b8a222	-5.482411890184539e-05
97	0xbf0d87563ba0cf44	-5.6321448440503744e-05
98	0xbf0e20c2888d1985	-5.746453923065595e-05
99	0xbf0e84a71be228d6	-5.820879913283484e-05
100	0xbf0eace722150c3c	-5.850868570658098e-05
101	0xbf0e93510a5219f7	-5.831805291571853e-05
102	0xbf0e31ab79e4e620	-5.7590528046391276e-05
103	0xbf0d81c34fb11572	-5.627991955540591e-05
104	0xbf0c7d7ac06b9ef9	-5.434065683634736e-05
105	0xbf0b1ed9926d20e6	-5.172826268179543e-05
106	0xbf09601e7ba24c9f	-4.83998587280873e-05
107	0xbf073bd19ea30b90	-4.431470354539842e-05
108	0xbf04acd81e2b59ec	-3.943476237615651e-05
109	0xbf01ae88b87fe688	-3.372530687779674e-05
110	0xbefc7982adb5c0f6	-2.7155542608737483e-05
111	0xbef4a7faefa59de5	-1.969926140912665e-05
112	0xbee7c5b55adb147a	-1.1335515263675154e-05
113	0xbec130dad08c0e1e	-2.0493076856602273e-06
114	0x3ee1210065e7dc93	8.16770187571221e-06
115	0x3ef4413ac8ead789	1.9316485629437426e-05
116	0x3f007515deecf9dd	3.138993257899615e-05
117	0x3f07438706c75c4a	4.437213724244793e-05
118	0x3f0e888815387632	5.823769847899638e-05
119	0x3f131fa93eb85b70	7.29510353994886e-05
120	0x3f1730d5a153b635	8.846572775996697e-05
121	0x3f1b73e6b4f7c9f8	0.00010472388861851995
122	0x3f1fe42ae79a3476	0.00012165557736861115
123	0x3f223e0c29caa3c3	0.00013917826153900083
124	0x3f249aa23e78a43a	0.00015719633596347917
125	0x3f27042e98ba0bb7	0.00017560070806518582
126	0x3f2976915919aaed	0.00019426845806277214
127	0x3f2bed31a6a53099	0.00021306258288189965
128	0x3f2e62fc46e9062d	0.0002318318324388431
129	0x3f30693189d14187	0.00025041064674715573
130	0x3f319aaeb004cff9	0.0002686192019780705
131	0x3f32c2b4af50d35d	0.00028626357317600664
132	0x3f33ddc74ba7a8e1	0.00030313602078869793
133	0x3f34e830be0084d7	0.00031901540751462287
134	0x3f35de0414416503	0.0003336677511974336
135	0x3f36bb202c116202	0.0003468469186081181
136	0x3f377b334ccb8552	0.0003582954639523478
137	0x3f3819bf63909bbd	0.0003677456148260502
138	0x3f38921ee31ee27f	0.0003749204071215386
139	0x3f38df8a47a2bd3a	0.00037953496906602583
140	0x3f38fd1e3d262e81	0.00038129795316230874
141	0x3f38e5e265a06072	0.00037991311330776774
142	0x3f3894d0b9ee7260	0.0003750810228042908
143	0x3f3804dd7f36bf98	0.00036650092735168163
144	0x3f3730ffc8641fd1	0.00035387272545550375
145	0x3f36143a798be580	0.0003368990669937108
146	0x3f34a9a5c1349ed9	0.0003152875589926669
147	0x3f32ec78f99a448f	0.00028875306598148074
148	0x3f30d814e23c3ad3	0.0002570200906441392
149	0x3f2cd01c40808bba	0.00021982521889282546
150	0x3f27306fe512d963	0.00017691961196470836
151	0x3f20c95e09a1e089	0.00012807152672045612
152	0x3f1327912e80ca0a	7.306884401784438e-05
153	0x3ee894fa385a439c	1.1721583870001784e-05
154	0xbf0d6e650a8d098c	-5.613561490360177e-05
155	0xbf211f964712bad5	-0.00013064107364387534
156	0xbf2bc64f398ffeaf	-0.00021190373516332325
157	0xbf33a92e308e14bb	-0.0003000009315246678
158	0xbf39e29a37615bf1	-0.00039497628256895874
159	0xbf4047c6f147ff53	-0.0004968377493810107
160	0xbf43d7c5523fd14a	-0.0006055558665125995
161	0xbf47a0b53b7db078	-0.0007210621761095789
162	0xbf4ba1ad0be4ebc0	-0.0008432478860308443
163	0xbf4fd96a290381f4	-0.0009719627724074629
164	0xbf52232799ef5523	-0.0011070143443608425
165	0xbf5473316a684181	-0.0012481672835101545
166	0xbf56dba78fd270f0	-0.0013951431604147212
167	0xbf595b30c24c57c6	-0.0015476204072846097
168	0xbf5bf04593a30e96	-0.0017052344760920871
169	0xbf5e99309c679dfc	-0.0018675780025833024
170	0xbf60aa071d60083f	-0.0020342005691427463
171	0xbf620f657ab21134	-0.0022046072022609223
172	0xbf637b8f5239c903	-0.002378253864486203
173	0xbf64ed406633bd5a	-0.0025545366094018975
174	0xbf666307d50ea6f8	-0.002732768342373567
175	0xbf67db2f5f51e380	-0.0029121327630118876
176	0xbf69538d5c525ac9	-0.003091598601325661
177	0xbf6ac933a6a3e9c2	-0.003269768601169094
178	0xbf6c37e862937f71	-0.0034446276446117798
179	0xbf6d9950a5b1938f	-0.003613145364897048
180	0xbf6ee3b349ec1548	-0.0037706853612486137
181	0xbf70041fd3e0ab22	-0.0039101832644899154
182	0xbf70786ae1b288f2	-0.00402108908306985
183	0xbf70beb8597cee38	-0.004088134875754039
184	0xbf70c0c589bd2124	-0.004090091355301948
185	0xbf70610e51174c16	-0.003998809742785011
186	0xbf6ef51a5cab1bcf	-0.003778983581784946
187	0xbf6bc397947edc72	-0.00338916402321448
188	0xbf66cfa5173b5df9	-0.002784559672232009
189	0xbf5f7d6440d40e17	-0.0019219855342392839
190	0xbf4921b1d4f7ee5e	-0.0007669561691154394
191	0x3f46dc3801e7ba3f	0.0006976388429487736
192	0x3f642c383b0f6fb7	0.002462491822809522
193	0x3f725e1696690153	0.004484260780884891
194	0x3f7b5e06cdb54d2f	0.006681467605932397
195	0x3f824cf029c443ae	0.008935810351006736
196	0x3f86bb9c545bcc1d	0.011100026440066963
197	0x3f8aa620fb2b4a3b	0.01301217810160892
198	0x3f8db9e4ec1d2c50	0.014514721351266996
199	0x3f8fb18bad057439	0.015475360124293501
200	0x3f902f6bb8caaa19	0.015805895952022284
201	0x3f8fb18bad05757c	0.015475360124294062
202	0x3f8db9e4ec1d2eb0	0.01451472135126805
203	0x3f8aa620fb2b4d85	0.01301217810161038
204	0x3f86bb9c545bd008	0.011100026440068703
205	0x3f824cf029c447ee	0.008935810351008624
206	0x3f7b5e06cdb555b3	0.006681467605934288
207	0x3f725e1696690957	0.004484260780886671
208	0x3f642c383b0f7e05	0.0024624918228111103
209	0x3f46dc3801e7ea8d	0.0006976388429501143
210	0xbf4921b1d4f7c7ca	-0.0007669561691143686
211	0xbf5f7d6440d3ff89	-0.001921985534238476
212	0xbf66cfa5173b58d9	-0.00278455967223144
213	0xbf6bc397947ed92e	-0.0033891640232141173
214	0xbf6ef51a5cab1a09	-0.003778983581784749
215	0xbf70610e51174bc6	-0.003998809742784942
216	0xbf70c0c589bd2141	-0.004090091355301973
217	0xbf70beb8597ceea3	-0.004088134875754132
218	0xbf70786ae1b28995	-0.004021089083069991
219	0xbf70041fd3e0abe7	-0.003910183264490086
220	0xbf6ee3b349ec1702	-0.0037706853612488054
221	0xbf6d9950a5b19562	-0.0036131453648972503
222	0xbf6c37e862938154	-0.0034446276446119892
223	0xbf6ac933a6a3ebad	-0.0032697686011693068
224	0xbf69538d5c525cb6	-0.0030915986013258746
225	0xbf67db2f5f51e569	-0.0029121327630120997
226	0xbf666307d50ea8db	-0.0027327683423737765
227	0xbf64ed406633bf39	-0.002554536609402105
228	0xbf637b8f5239cad5	-0.002378253864486405
229	0xbf620f657ab212fc	-0.00220460720226112
230	0xbf60aa071d6009fb	-0.002034200569142939
231	0xbf5e99309c67a155	-0.0018675780025834883
232	0xbf5bf04593a311cf	-0.001705234476092266
233	0xbf595b30c24c5adb	-0.0015476204072847808
234	0xbf56dba78fd273e2	-0.0013951431604148847
235	0xbf5473316a68444c	-0.0012481672835103095
236	0xbf52232799ef57c6	-0.0011070143443609889
237	0xbf4fd96a290386e6	-0.0009719627724076002
238	0xbf4ba1ad0be4f063	-0.000843247886030973
239	0xbf47a0b53b7db4c6	-0.0007210621761096984
240	0xbf43d7c5523fd542	-0.0006055558665127097
241	0xbf4047c6f14802f0	-0.000496837749381111
242	0xbf39e29a3761628b	-0.00039497628256905036
243	0xbf33a92e308e1ab8	-0.0003000009315247509
244	0xbf2bc64f39900953	-0.00021190373516339708
245	0xbf211f964712c41f	-0.0001306410736439398
246	0xbf0d6e650a8d2a1e	-5.613561490365827e-05
247	0x3ee894fa3859d345	1.1721583869953064e-05
248	0x3f1327912e80be6f	7.306884401780412e-05
249	0x3f20c95e09a1dbe4	0.0001280715267204239
250	0x3f27306fe512d5ba	0.00017691961196468297
251	0x3f2cd01c40808902	0.0002198252188928066
252	0x3f30d814e23c39f6	0.00025702009064412724
253	0x3f32ec78f99a4426	0.00028875306598147505
254	0x3f34a9a5c1349ed2	0.00031528755899266653
255	0x3f36143a798be5d4	0.00033689906699371536

time_axis f8 [60]
0	0xbfe0000000000000	-0.5
1	0xbfdf5c28f5c28f5c	-0.49
2	0xbfdeb851eb851eb8	-0.48
3	0xbfde147ae147ae15	-0.47000000000000003
4	0xbfdd70a3d70a3d71	-0.46
5	0xbfdccccccccccccd	-0.45
6	0xbfdc28f5c28f5c29	-0.44
7	0xbfdb851eb851eb85	-0.43
8	0xbfdae147ae147ae1	-0.42
9	0xbfda3d70a3d70a3e	-0.41000000000000003
10	0xbfd999999999999a	-0.4
11	0xbfd8f5c28f5c28f6	-0.39
12	0xbfd851eb851eb852	-0.38
13	0xbfd7ae147ae147ae	-0.37
14	0xbfd70a3d70a3d70a	-0.36
15	0xbfd6666666666667	-0.35000000000000003
16	0xbfd5c28f5c28f5c3	-0.34
17	0xbfd51eb851eb851f	-0.33
18	0xbfd47ae147ae147b	-0.32
19	0xbfd3d70a3d70a3d7	-0.31
20	0xbfd3333333333333	-0.3
21	0xbfd28f5c28f5c28f	-0.29
22	0xbfd1eb851eb851ec	-0.28
23	0xbfd147ae147ae148	-0.27
24	0xbfd0a3d70a3d70a4	-0.26
25	0xbfd0000000000000	-0.25
26	0xbfceb851eb851eb8	-0.24
27	0xbfcd70a3d70a3d71	-0.23
28	0xbfcc28f5c28f5c29	-0.22
29	0xbfcae147ae147ae1	-0.21
30	0xbfc999999999999a	-0.2
31	0xbfc851eb851eb852	-0.19
32	0xbfc70a3d70a3d70a	-0.18
33	0xbfc5c28f5c28f5c3	-0.17
34	0xbfc47ae147ae147b	-0.16
35	0xbfc3333333333333	-0.15
36	0xbfc1eb851eb851ec	-0.14
37	0xbfc0a3d70a3d70a4	-0.13
38	0xbfbeb851eb851eb8	-0.12
39	0xbfbc28f5c28f5c29	-0.11
40	0xbfb999999999999a	-0.1
41	0xbfb70a3d70a3d70a	-0.09
42	0xbfb47ae147ae147b	-0.08
43	0xbfb1eb851eb851ec	-0.07
44	0xbfaeb851eb851eb8	-0.06
45	0xbfa999999999999a	-0.05
46	0xbfa47ae147ae147b	-0.04
47	0xbf9eb851eb851eb8	-0.03
48	0xbf947ae147ae147b	-0.02
49	0xbf847ae147ae147b	-0.01
50	0x0000000000000000	0.0
51	0x3f847ae147ae147b	0.01
52	0x3f947ae147ae147b	0.02
53	0x3f9eb851eb851eb8	0.03
54	0x3fa47ae147ae147b	0.04
55	0x3fa999999999999a	0.05
56	0x3faeb851eb851eb8	0.06
57	0x3fb1eb851eb851ec	0.07
58	0x3fb47ae147ae147b	0.08
59	0x3fb70a3d70a3d70a	0.09

dx f8 []
0	0x3f9999999999999a	0.025

dt f8 []
0	0x3f847ae147ae147b	0.01
