MB_FB_model/CKC STkernels-good parameters.npz (npz, 323563 bytes, 5 tensors)

ST_kernel (column-major) f8 [50, 401]
00000000: 5928 0c92 27ba 93bf d31e 1f17 189c 91bf
00000010: 2eb6 92aa 0860 8ebf e016 7996 beed 8abf
00000020: 7604 98f7 5c55 87bf c05c da94 d051 83bf
00000030: 9f21 4ddf 7fca 7dbf fb54 15fa 4a7a 76bf
00000040: eab4 846a 2474 73bf 2706 2796 4508 70bf
00000050: 7227 f86c b8af 64bf 3c3a 0f41 acf6 56bf
00000060: 47f4 155f 86d2 4abf a4c1 a13b 7d68 383f
00000070: 5128 89eb 7968 563f 8371 5c41 31ba 5f3f
00000080: b5eb 5e1e 8f42 663f 9ae6 9246 25a1 683f
00000090: b934 2021 2a4b 673f 786a c3ca 9327 593f
000000a0: 28da 0548 45d1 413f 1ee8 9edb 721f 503f
000000b0: 3ab3 c86d f8be 5e3f 0a84 2ae5 02c3 5f3f
000000c0: e572 74ea 0fe6 603f e1ef 4d06 644c 5a3f
000000d0: 92a1 072f 5f63 483f 68d3 657a 4a49 25bf
000000e0: e845 10a1 f9be 3dbf 68e5 39b8 1c6c 30bf
000000f0: a048 0838 74b6 1fbf 00ff 809f 39e9 f43e
00000100: dc3c 6c7f eec7 3e3f 79a6 cf5f a415 543f
00000110: 97e1 eb21 69f7 5d3f 0f5d ffd6 38a6 6a3f
00000120: 8524 7988 938e 6d3f bb9d cdb7 7b07 6f3f
00000130: 3402 f1ae 7b3e 703f 23fa 9606 546d 713f
00000140: 9c18 700f 0e4f 713f e2ab 58fd cd19 713f
00000150: 93ef cff0 17b7 733f dd06 9caf e083 773f
00000160: 785e 0901 00dd 783f 11df 3107 59df 793f
00000170: 3e9e 4b09 a998 783f 7751 2885 516f 743f
00000180: dade 18c1 9800 723f 93a2 af18 ce7d 703f
00000190: c0fb 1c43 53c2 93bf c947 28f9 e15f 91bf
000001a0: dbf5 47ec b56c 8dbf c0cc cd80 5d93 89bf
000001b0: c7cc b460 ee02 86bf f81d 6394 4b52 82bf
000001c0: 1860 11a3 2140 7cbf 8038 079d 8687 75bf
000001d0: 9751 ee4b c408 73bf a67c ea88 71dd 6fbf
000001e0: 16f9 a8bc a023 64bf e5cd 72b3 882c 56bf
000001f0: 3f4d 23d6 cf63 4abf 77e8 355e d5ea 3a3f
00000200: f687 f8b6 e4b3 573f 3941 b7df 071b 613f
00000210: 41ca be0f 449b 683f 4c57 6dfb fb2f 6b3f
00000220: 653d 156f da1b 693f e09b 8769 8d1e 5d3f
00000230: 0edd 9baf 7c65 4b3f a48b a94b 6c53 553f
00000240: 3ed9 91a8 0f60 623f 0816 12da 14df 633f
00000250: a3bb ecb7 05d2 643f 933b 238c 4b0c 613f
00000260: d04a ee67 7824 543f b0e3 e47d 9c71 313f
00000270: 801b a0f3 e3fb f43e 1871 c690 a891 2c3f
00000280: d0b7 6ad5 8cc5 323f f070 ff03 4a89 373f
00000290: 9843 8ea4 c754 473f dd34 e90a ce0e 563f
000002a0: d05a a273 0c2c 5e3f 88c7 b242 eaf0 683f
000002b0: 1e1d bd1a bfeb 6a3f c151 f697 13ff 6b3f
000002c0: a9d3 002a 30b7 6d3f 49da 2e6a 7053 703f
000002d0: 7956 f84f afa2 703f 5f92 6f56 1f4a 703f
000002e0: a68c e4d4 bf9d 723f 44c1 09f3 ac93 763f
000002f0: d0d6 d218 5e34 783f 3206 f24c 7d5d 793f
00000300: 4e5b b114 67a3 783f f436 a2af 37ed 743f
00000310: 0bfc 528b f75a 723f ea71 ec62 b2ba 703f
00000320: 02ef e0eb 05a2 93bf a227 080e c2ff 90bf
00000330: bb8a bb3e 4e3e 8cbf 3e29 7f8c 1f10 88bf
00000340: 7265 e05b f3a2 84bf d300 d2d8 6973 81bf
00000350: e0a6 dfb8 0558 7bbf b08b 0f1a d871 75bf
00000360: 2876 03d4 687e 73bf 2e61 8346 23bd 70bf
00000370: 20bf c16d b7d9 65bf 02fd 1e0c 5779 5abf
00000380: 0cf5 9dfb cf6c 52bf 207b d655 6fb6 063f
00000390: d4a4 56db 1a1f 513f a4f9 72e4 4c98 5c3f
000003a0: f2a6 f9ab 4180 663f 8359 17f4 f862 693f
000003b0: 907f ec57 5abe 663f 007c a4ee 1244 593f
000003c0: c0d1 97d5 ab5b 473f 3c83 6b61 895b 543f
000003d0: 9ff6 ee35 7758 623f dcf0 cd4d ea97 643f
000003e0: f5de 1a03 8b79 653f 72de 06d4 5214 623f
000003f0: ef69 6d36 8930 563f d5f5 6dce 8a55 343f
00000400: 40c5 4478 3e3d 063f 787a abf7 aa91 2c3f
00000410: 9074 26ec d378 2c3f a0e1 7f5f ec7d 293f
00000420: 24e4 9a77 e614 3e3f 5e7f 7e8b 44d4 4f3f
00000430: 540c 3c0b 0aaa 563f c59d ddd0 63be 633f
00000440: 84ed 45bd d251 653f 7b01 3dda d198 663f
00000450: 5a82 af1c cd04 693f f477 7d37 ceea 6c3f
00000460: 867c 005c b39f 6e3f 635f 30db 52b3 6d3f
00000470: b0b5 bdcd eccf 703f ec0c 1235 969e 743f
00000480: f8e3 7c1b 406b 763f f949 56fa 23ba 773f
00000490: c525 fe99 c2af 773f 88b2 4fab 7b9f 743f
000004a0: 5a9b b905 7818 723f ce4e 571a 5939 703f
000004b0: 96e4 4917 49bc 91bf dcba 1105 f7bc 8dbf
000004c0: 969b be27 5f99 87bf e23c d8de b71a 83bf
000004d0: 07f8 28fb 8c96 7fbf b488 47e5 6e17 7abf
000004e0: 6499 63f4 4f4d 73bf 8eaa bc82 eded 6bbf
000004f0: 4f65 563a 8b8f 68bf e658 6c86 994a 63bf
00000500: 22d2 ca78 494d 4dbf adc7 a5e4 3b8f 243f
00000510: fc8c b278 d8ec 453f 0756 a72b f909 5e3f
00000520: 2270 1601 eb24 673f 094a 3fe2 830e 6d3f
00000530: 521c b509 24e3 723f 7b73 bf1f bf3e 743f
00000540: 64db 26e7 648c 723f 2cfb 1258 de89 6b3f
00000550: 4a05 dfc2 2cd4 653f f045 1b4a 0e74 6a3f
00000560: 313a ed29 c761 713f f09e 537c 4515 733f
00000570: b800 43ce 39b1 733f 457c bbea 2a2d 723f
00000580: 52ae f482 303c 6d3f 5d89 47ea 0c2f 643f
00000590: 20b3 39de bf9e 613f a3ec 3f7b 3996 623f
000005a0: f3c3 1d94 efb5 613f 2612 ac6e f596 603f
000005b0: 12ad fa47 202a 623f cffa 8d59 8848 653f
000005c0: ba93 9e5c 4949 673f d35c 245d 4112 6e3f
000005d0: 2e95 7abd 443b 6f3f d4c7 c228 3076 703f
000005e0: 56dd da9f 23fe 713f 4761 1844 cb4a 743f
000005f0: 035a c66a 36c4 753f ca5d 3cfd 8e43 753f
00000600: 1778 23e2 dddf 763f b45d 44cc fb85 7a3f
00000610: f774 1d1b 7678 7c3f 3e86 ff99 b0f7 7d3f
00000620: 166c a3f5 09a8 7e3f 5ad4 36d5 6937 7c3f
00000630: 658d 03d7 6995 793f d4a6 760f 7b7d 773f
00000640: 9ecf dedf dfb5 90bf cac3 e693 6d49 8bbf
00000650: b9a4 35b8 03c6 84bf 5131 091c 89e5 7fbf
00000660: 8ccc 6818 e183 79bf e4cb dc50 35ef 74bf
00000670: 821b 8cb5 5ff3 6dbf 3254 12b4 7f2f 64bf
00000680: ce1c 39b3 c09c 61bf 084d f73a c16a 59bf
00000690: a0b7 a4a4 c375 1cbf f287 93f2 dc9a 4d3f
000006a0: a0cb f349 7ee5 563f ad6e 4e24 d3ec 643f
000006b0: 08b1 214b e0cc 6c3f 10a6 a683 f670 713f
000006c0: bc67 95f8 7df1 753f 760c 10bd 5259 773f
000006d0: b284 f03f ef73 753f 05c1 d6f7 c934 713f
000006e0: 3735 81d8 332a 6e3f 0fda 8c0b dd81 713f
000006f0: 9a82 9519 b69f 753f 8cbb 2716 fc86 773f
00000700: ac20 6d2a b222 783f efaa 3b74 fa76 763f
00000710: 647c cc68 eaf5 723f 89e1 5e93 2b29 6c3f
00000720: 7287 1681 c52c 693f 2111 87b3 5e9f 693f
00000730: 6965 c404 8eb9 673f 7391 f00e 07aa 653f
00000740: 2cff f3bf 94a2 663f 08ca c368 94f9 683f
00000750: 514d 3ed7 8aeb 693f 40ac 5a09 c15b 6f3f
00000760: 75e6 3726 163a 703f a219 ee89 1f58 713f
00000770: c5d8 5c23 722a 733f d640 e918 63c8 753f
00000780: e2d0 f29f d8a6 773f 9216 af5d 2b0c 773f
00000790: 5e0b 8c0d fa39 783f 2a5e a354 e373 7b3f
000007a0: 22a7 62ce 847c 7d3f 3c10 2e38 324e 7f3f
000007b0: 996d 0484 5d5a 803f feea 05dc 6e20 7f3f
000007c0: 6e67 6d43 4390 7c3f e9ba 099a 156c 7a3f
000007d0: 8c11 42e0 b192 90bf 4e8f 79a9 2799 8abf
000007e0: 75d8 4f8d 2ab7 83bf 7a2f 9214 e50b 7dbf
000007f0: a4b4 7a52 c9dd 76bf f40b 6151 2c1a 73bf
-0.019264810837775623 -0.017197014247158315 -0.014831607537725135 -0.013148774115630812 -0.011393286043132483 -0.0094333930422138 -0.007273196698243472 -0.005487721327275037
-0.004749433756200386 -0.0039141386245673876 -0.002525196272249391 -0.0014015848321268362 -0.0008185535536281507 0.00037243897862195897 0.0013676825166322357 0.001936481572051369
0.002717284706674284 0.003006527713833429 0.0028434584464834514 0.0015353148729021753 0.0005437458312787568 0.0009840604457012135 0.0018765855849196115 0.0019385841630212863
0.002062827191947713 0.001605127029704605 0.000744267918034546 -0.00016240152508442273 -0.0004538878866365546 -0.00025058461344647795 -0.00012097439140060446 1.994231749358113e-05
0.00046968052576885715 0.0012258630006222444 0.0018290068325637948 0.0032530889657028726 0.0036080247407750976 0.0037877479903049827 0.003965838564056901 0.004254654145766898
0.004225783274710928 0.00417499985409628 0.004813283460858647 0.0057410027309303365 0.0060701370390102635 0.006316516653093422 0.00600496320541982 0.00498897403533182
0.00439510030405873 0.004026227058581927 -0.019295979472413682 -0.016967326004369263 -0.014367505334116728 -0.012488108151705979 -0.010747778249969987 -0.008946028200070608
-0.006897097963779707 -0.005256200631675978 -0.004647032531370241 -0.003889772174559508 -0.002458394946443519 -0.0013533911676802898 -0.0008053555323165664 0.00041072568111356157
0.0014466985266001742 0.002088084582034491 0.0030037240339535758 0.0033187791372410232 0.003065039280648984 0.0017773037890209606 0.0008360728090498774 0.0013016278814112847
0.0022430711583708842 0.002425709463355078 0.002541552704677001 0.0020810580764200697 0.0012293983306547636 0.0002661711750025454 2.0011851326297552e-05 0.00021796400723140467
0.00028643310853737353 0.0003591352178753523 0.0007120108431185488 0.0013463031897516444 0.0018415567015261265 0.0030445647622280893 0.003286240816951071 0.003417528408770049
0.0036273899750320538 0.003985823745941427 0.004061398328777715 0.003976938641220145 0.004544972746120346 0.005511928161112959 0.005909316602971962 0.006192674117416129
0.006015207919594824 0.0051090407597606975 0.0044812841126136245 0.004084297964052722 -0.01917275669278152 -0.016600639444767425 -0.01379071358627947 -0.011749502635116312
-0.010076428643560151 -0.008520914964038095 -0.00667574153156078 -0.005235523364691838 -0.004759225354261022 -0.0040866258570633595 -0.0026672918884783764 -0.0016158437797313967
-0.0011245757181933018 4.332091587432572e-05 0.0010450136445377305 0.0017452956106321716 0.0027467043544689923 0.0030989515659982105 0.0027763142128520227 0.001542109001611669
0.0007128323588277349 0.0012425271613027552 0.0022394493421121343 0.0025138450859555194 0.0026214327889099117 0.0022069566477645403 0.0013543453184953166 0.0003102744944312984
4.241797344873644e-05 0.00021796428685312889 0.0002172239965831141 0.0001944876710238243 0.0004590094245987017 0.0009713492099656486 0.0013833139500441143 0.002410120919126265
0.002602492904939248 0.002758417003775713 0.003054047212103489 0.0035299327536639728 0.0037382605660379346 0.003625547245530146 0.0041045427459329015 0.005034052607814515
0.005473375720435485 0.005792751825895775 0.00578285232757864 0.005034907419923081 0.004417866551739669 0.003960941370184391 -0.017319814726282155 -0.014520578233911001
-0.011523002052696001 -0.009328304756336118 -0.007711935717962254 -0.006370003877664999 -0.0047124026516257335 -0.003409351242131215 -0.002998134545759846 -0.002354907849972598
-0.0008942230939142407 0.00015685659520730863 0.0006691033353444504 0.0018334325128440702 0.0028252210547190662 0.003546960435394601 0.004611149571537148 0.004942652300056301
0.004528421547027903 0.003361639276220704 0.0026646494143000342 0.003229167851579666 0.004243638976574136 0.004658957889865908 0.004807687572054124 0.004437606472236293
0.003568739651788091 0.002463841652784611 0.0021508929656221115 0.002268898266263601 0.002161949088013143 0.002025107727037917 0.0022173529140069393 0.0025980628092264544
0.0028425629470398535 0.0036708141934799015 0.003812441118344132 0.004018962976418867 0.004392756612723167 0.004954141624260728 0.00531407601046974 0.005191381980487584
0.00558458970246358 0.0064754329544238105 0.00695081839680011 0.0073162935732127825 0.007484473137277644 0.006888783845558322 0.00624600738248957 0.005734902100280787
-0.016318796194994094 -0.013323646617978375 -0.010143307742242024 -0.007787261566204088 -0.006229285505969472 -0.0051109392787109555 -0.003656088764162958 -0.002464055462562808
-0.002149940841067988 -0.0015513312354087944 -0.00010856634722663941 0.0009034708829427347 0.0013974889077956534 0.00255433310162608 0.003515661309441257 0.004258120485624697
0.005357257913908894 0.00570041961418887 0.005237516946210595 0.004200734079333528 0.0036822331058262952 0.004274238069049931 0.005279265716439463 0.005743965828954322
0.005892463645814566 0.005484560333324436 0.004629054700472233 0.0034376002394901945 0.0030731065277941833 0.00312775131553357 0.002896096592064513 0.002644552026611341
0.002763071562753702 0.0030486963861389195 0.003164073155809945 0.003827931427470982 0.003961645622888467 0.004234431455989814 0.004679151393977847 0.005318057154525676
0.005774351301784915 0.005626840017560435 0.005914665955745272 0.006702316293931735 0.007198828481856075 0.007642933053720265 0.007984858123157678 0.007599289936815577
0.006973517177209716 0.006450733548816181 -0.016184596359850853 -0.012987432345830687 -0.009626705586907239 -0.007091421933306802 -0.005582605757507828 -0.004663632504221294

ssSTk f8 [50, 401]
00000000: c6e8 0a14 8f78 9cbe 1c55 9ad3 e6c2 a0be
00000010: 876e c146 5860 a3be 9e99 ab5f 6e11 a6be
00000020: a9b8 a529 8ad2 a8be c5cd 7c1c 989f abbe
00000030: ebe8 d39e 0d74 aebe 8c95 47a1 73a5 b0be
00000040: c5bc 80e8 530f b2be 3c1f 7a1e ac74 b3be
00000050: b3be 7248 44d2 b4be 8c19 faf7 a824 b6be
00000060: ad7c f0df 2c68 b7be 1854 2209 eb98 b8be
00000070: 5fc9 51b1 c9b2 b9be deb4 26df 7db1 babe
00000080: d18f 01b5 8f90 bbbe 2a6d 108c 5f4b bcbe
00000090: 34cb 42e0 2bdd bcbe 7529 d014 1841 bdbe
000000a0: 63a7 f317 3472 bdbe 559b 42eb 846b bdbe
000000b0: 8d46 9b14 0e28 bdbe 23f2 11fa dba2 bcbe
000000c0: 8176 7c29 0fd7 bbbe f24f 458a e8bf babe
000000d0: c80e 0776 d658 b9be 929a 16b2 829d b7be
000000e0: 4e2d 9641 e189 b5be b543 ec04 401a b3be
000000f0: e794 8918 574b b0be bae7 90c3 b334 aabe
00000100: 068a c06a 110a a3be d3a8 abfd 0b27 96be
00000110: 9e55 2b15 9d79 72be 01c2 7a4e ea0c 8d3e
00000120: ada5 9fab 6aa2 a13e 3939 09e5 2dcb ac3e
00000130: d0bd f998 2d5c b43e 5fd6 b238 55b1 ba3e
00000140: 63a4 9a34 24b0 c03e 07ea 37b4 8731 c43e
00000150: ba9c 7611 38d9 c73e 3b2a 88c3 efa2 cb3e
00000160: 66a5 6b34 ba89 cf3e d78d f10f f7c3 d13e
00000170: e18f 2483 94cb d33e 734d f8ed 25d8 d53e
00000180: ed5a b48f bce5 d73e 7fff 3241 0af0 d93e
00000190: 420b 0029 62f2 db3e 260f 8765 bae7 dd3e
000001a0: 3407 09c3 aeca df3e 3e5f 8f48 c2ca e03e
000001b0: 9f93 b9d3 17a1 e13e 3149 e650 2c65 e23e
000001c0: ee56 4f27 b213 e33e 8aeb 891b 3ea9 e33e
000001d0: 8227 e104 4c22 e43e 9117 a0c4 437b e43e
000001e0: 2f6a b737 7eb0 e43e d8c8 3cc2 49be e43e
000001f0: 35a5 7801 eea0 e43e 07e8 6e2f ae54 e43e
00000200: d87c fedf c9d5 e33e 9702 020a 7c20 e33e
00000210: 5a76 49cf f830 e23e 87c2 8a29 6b03 e13e
00000220: ef6d 0ce4 e827 df3e a868 baf0 60bd db3e
00000230: d814 6b95 82bf d73e bac3 5a4f cb26 d33e
00000240: 34f4 0f71 70d8 cb3e 1583 6706 4c13 c03e
00000250: b767 9085 63a4 973e 6fcd 9206 8013 b7be
00000260: d332 0b38 e368 cbbe 17f1 bdcf 5352 d6be
00000270: 304e 7d80 6199 dfbe 2d8c 8ee9 a5c0 e4be
00000280: 0629 b53f 1f79 eabe 70d4 1344 7f07 f0be
00000290: 9681 3683 79f1 f2be fe38 5c18 ecf5 f5be
000002a0: f67d ff6d d10f f9be 3179 869a bf39 fcbe
000002b0: 2b9c ea2e ef6d ffbe 9e49 ffc3 1c53 01bf
000002c0: c55c 4204 08ee 02bf 3213 d468 3784 04bf
000002d0: 7b24 c405 e711 06bf 4215 ee4f 0a93 07bf
000002e0: c191 8a4e 4703 09bf 813b c749 f45d 0abf
000002f0: 3c23 db2f 189e 0bbf 0a2d 1e94 6dbe 0cbf
00000300: f3ac dbf8 67b9 0dbf 0c70 8103 3b89 0ebf
00000310: 3b5d d142 e327 0fbf 789b ad44 308f 0fbf
00000320: f680 dcd2 cfb8 0fbf 461d ba44 5a9e 0fbf
00000330: b1dc bbe3 5f39 0fbf 322a 4d69 7783 0ebf
00000340: ae7e 009f 4d76 0dbf b54c 2928 b60b 0cbf
00000350: 31ce 7977 bd3d 0abf 8e6d 93ed bb06 08bf
00000360: 3230 7817 6a61 05bf 0ce6 e8fd f548 02bf
00000370: f3a4 3de2 3272 fdbe 0eb0 ef6d 625c f5be
00000380: 9f35 29f2 5395 e8be 5210 9071 fec6 c1be
00000390: ac21 0992 99b6 e13e f0a9 55e3 20f2 f43e
000003a0: d691 7995 d104 013f ee05 cfa8 b40e 083f
000003b0: 9e6b 531e 3393 0f3f 7768 ee59 aec6 133f
000003c0: 127f 4401 60fb 173f ce31 281a aa63 1c3f
000003d0: 87a5 370a 597d 203f 4770 80d5 5edd 223f
000003e0: 18ad 7c2c 954e 253f da34 c0fd 32cd 273f
000003f0: ecaa 2f64 f454 2a3f 7c28 a560 18e1 2c3f
00000400: aad5 a365 5f6c 2f3f 0d1b 2964 85f8 303f
00000410: ee3c 9c94 6e34 323f e01b 23f3 8d66 333f
00000420: 65c2 33d3 488b 343f 697d b906 c99e 353f
00000430: d220 bc52 ff9c 363f e794 3884 a681 373f
00000440: d8ab 8729 4748 383f 2add 6bf3 3bec 383f
00000450: 9c32 7bbf b668 393f 9053 1a4c c6b8 393f
00000460: 8998 a294 5cd7 393f 0b4c 9ad2 55bf 393f
00000470: 4b22 1f1f 806b 393f 3761 cbad a3d6 383f
00000480: 738a 7a98 8bfb 373f 3c6a 6731 0fd5 363f
00000490: ee6a 30cf 1b5e 353f 258d 6504 bf91 333f
000004a0: 1347 6332 316b 313f 38ed d9ca c0cb 2d3f
000004b0: 15a0 7dcc f6fa 273f 5063 61d7 f95b 213f
000004c0: 85c9 1d56 dbce 133f f1b5 ef07 ab6b e93e
000004d0: 1b7f 3ffc 6f6f 0ebf 92b7 8f18 23b5 21bf
000004e0: 368e da58 e2b8 2cbf 5f33 4358 e454 34bf
000004f0: 94eb 86cc acc4 3abf 348e 93f2 f6d5 40bf
00000500: 46aa a161 1285 44bf 20a1 5eac 106f 48bf
00000510: 0a7e 3c39 0093 4cbf 6c18 23b6 c977 50bf
00000520: a6c9 2066 8fc1 52bf aef9 04e2 cb25 55bf
00000530: 9bb5 ad00 4aa3 57bf ed9a a7b2 a438 5abf
00000540: 1486 1f2f 47e4 5cbf 269c 8122 6da4 5fbf
00000550: 4689 8835 913b 61bf 0be0 e6b6 20ad 62bf
00000560: ccfd 810a b725 64bf 2f31 c5e2 04a4 65bf
00000570: 003e 6fc8 8c26 67bf b5d0 8388 89ab 68bf
00000580: 3604 de96 be30 6abf 1e8a 8936 24b3 6bbf
00000590: 13a2 3aa3 5b2e 6dbf 633c 8e71 d29b 6ebf
000005a0: 8cb2 0890 7af1 6fbf 4521 adf9 0090 70bf
000005b0: 022d 2ab2 4308 71bf 2957 f729 f750 71bf
000005c0: 07ae 0a45 1653 71bf a8ba 4119 1bf0 70bf
000005d0: ebc3 f7cf bc01 70bf 4d92 40f8 12b6 6cbf
000005e0: 1e64 a9a4 de96 67bf 2e56 82e8 3448 60bf
000005f0: df1d 059f 2ffd 49bf 4181 4d60 dfa3 473f
00000600: 2af8 f0d6 66dc 643f bebc 6a17 81fe 723f
00000610: 3d49 2b27 0b4d 7c3f 4462 3de2 c4ec 823f
00000620: f59d dce8 2682 873f 3762 4b3a df8e 8b3f
00000630: 2a60 3741 83bd 8e3f 7ee1 165e 2c63 903f
00000640: 2f62 b401 c7bc 903f 25e2 165e 2c63 903f
00000650: 9f62 3741 83bd 8e3f 9d65 4b3a df8e 8b3f
00000660: 03a2 dce8 2682 873f a966 3de2 c4ec 823f
00000670: 0b52 2b27 0b4d 7c3f 07c5 6a17 81fe 723f
00000680: f406 f1d6 66dc 643f 34b3 4d60 dfa3 473f
00000690: faf5 049f 2ffd 49bf a84e 82e8 3448 60bf
000006a0: d15e a9a4 de96 67bf ec8e 40f8 12b6 6cbf
000006b0: 00c3 f7cf bc01 70bf 56ba 4119 1bf0 70bf
000006c0: 26ae 0a45 1653 71bf 9857 f729 f750 71bf
000006d0: ab2d 2ab2 4308 71bf 1022 adf9 0090 70bf
000006e0: 55b4 0890 7af1 6fbf 463e 8e71 d29b 6ebf
000006f0: 06a4 3aa3 5b2e 6dbf 1a8c 8936 24b3 6bbf
00000700: 3306 de96 be30 6abf afd2 8388 89ab 68bf
00000710: f43f 6fc8 8c26 67bf 1e33 c5e2 04a4 65bf
00000720: aeff 810a b725 64bf e2e1 e6b6 20ad 62bf
00000730: 118b 8835 913b 61bf 9c9f 8122 6da4 5fbf
00000740: 6989 1f2f 47e4 5cbf 1d9e a7b2 a438 5abf
00000750: a6b8 ad00 4aa3 57bf 91fc 04e2 cb25 55bf
00000760: 5fcc 2066 8fc1 52bf fb1a 23b6 c977 50bf
00000770: d682 3c39 0093 4cbf 94a5 5eac 106f 48bf
00000780: 61ae a161 1285 44bf f191 93f2 f6d5 40bf
00000790: 68f2 86cc acc4 3abf 9139 4358 e454 34bf
000007a0: 3799 da58 e2b8 2cbf 2dc1 8f18 23b5 21bf
000007b0: c9a0 3ffc 6f6f 0ebf c541 ef07 ab6b e93e
000007c0: 85bd 1d56 dbce 133f 825e 61d7 f95b 213f
000007d0: 4b9c 7dcc f6fa 273f 68ea d9ca c0cb 2d3f
000007e0: 2e46 6332 316b 313f b98c 6504 bf91 333f
000007f0: e76a 30cf 1b5e 353f 936a 6731 0fd5 363f
-4.242499649743564e-07 -4.995266984104439e-07 -5.774601397156558e-07 -6.576803451535667e-07 -7.397657840033193e-07 -8.232419128395826e-07 -9.075800428131458e-07 -9.921965374801745e-07
-1.07645237968825e-06 -1.1596531467611694e-06 -1.2410494337026362e-06 -1.3198377643311414e-06 -1.395162030133443e-06 -1.4661154961505064e-06 -1.531743412355549e-06 -1.591046267716924e-06
-1.6429837224269076e-06 -1.6864792515895236e-06 -1.7204255309654326e-06 -1.743690592139773e-06 -1.7551247706811526e-06 -1.7535684664699953e-06 -1.737860730367463e-06 -1.706848685750021e-06
-1.659397787130186e-06 -1.5944029111052455e-06 -1.5108002672106455e-06 -1.4075801078955978e-06 -1.2838002077821954e-06 -1.138600072618019e-06 -9.712158278938017e-07 -7.809957259859528e-07
-5.674161989192791e-07 -3.3009837145540715e-07 -6.882493623223133e-08 2.1644272084820793e-07 5.25547270810772e-07 8.581182076668437e-07 1.2135547854638864e-06 1.5910092965703752e-06
1.989370876771594e-06 2.4072500381920372e-06 2.842964146504762e-06 3.2945240742200666e-06 3.7596222769344403e-06 4.235622554113697e-06 4.719551770091647e-06 5.208093824221745e-06
5.697586171102563e-06 6.184019201771364e-06 6.663038803369713e-06 7.1299524155332235e-06 7.57973889215103e-06 8.007062449452378e-06 8.406290923088272e-06 8.771518449167226e-06
9.096592501405217e-06 9.375144928149845e-06 9.60062621059902e-06 9.766341595006895e-06 9.865487064543685e-06 9.891182407882287e-06 9.836498107667662e-06 9.69447272135619e-06
9.45811825642103e-06 9.120413153819186e-06 8.67428614375746e-06 8.112599333061063e-06 7.428144784406533e-06 6.613674269262893e-06 5.661984991693981e-06 4.566082898158883e-06
3.319438186098864e-06 1.916334485971617e-06 3.522953924709094e-07 -1.3754470507388105e-06 -3.2674929005604573e-06 -5.3218820957846445e-06 -7.533823015954145e-06 -9.89557820380544e-06
-1.2623373541704757e-05 -1.5286718057578826e-05 -1.806570089757513e-05 -2.0943292404367903e-05 -2.390078486757919e-05 -2.6918010605941546e-05 -2.9973441025756838e-05 -3.3044162136913776e-05
-3.610574688755469e-05 -3.91320619233304e-05 -4.209505343239717e-05 -4.496455402773016e-05 -4.7708142863176196e-05 -5.029107817088649e-05 -5.267630875278046e-05 -5.48245611887381e-05
-5.669449374842176e-05 -5.82429060506929e-05 -5.942499442628887e-05 -6.0194645434211624e-05 -6.050476291208529e-05 -6.030762650959891e-05 -5.955528146544523e-05 -5.81999603697824e-05
-5.619453793337163e-05 -5.349301956827352e-05 -5.0051064076319845e-05 -4.582654009662865e-05 -4.0780115281164103e-05 -3.487587649826312e-05 -2.808197872586778e-05 -2.0371319688836146e-05
-1.172223671122124e-05 -2.119221687470578e-06 8.44635047871151e-06 1.997548516411736e-05 3.246082877409225e-05 4.5885933196664636e-05 6.022453070793982e-05 7.543982654426179e-05
9.148381679268913e-05 0.0001082966396454617 0.00012580596840842622 0.0001439264549397709 0.00016255923241579521 0.0001815914864668259 0.00020089610379100205 0.00022033140732908077
0.00023974098696270585 0.0002589536344754097 0.000277783391184407 0.0002960297162072894 0.0003134777827673906 0.0003298989092623468 0.00034505113102102386 0.00035867991775469097
0.0003705190406708115 0.00038029159206538993 0.0003877111589474598 0.0003924831508837429 0.00039430628079129747 0.0003928741958613708 0.0003878772541808003 0.0003790044409419826
0.00036594541641413804 0.0003483926861044572 0.00032604388178618284 0.0002986041403316312 0.00026578856558244593 0.00022732475683882327 0.00018295538597645823 0.00013244080372734135
7.556165431114009e-05 1.2121476400363064e-05 -5.805073263309546e-05 -0.00013509801308891602 -0.00021913302446306828 -0.0003102357370721644 -0.0004084512588879371 -0.0005137878225948745
-0.0006262149575040974 -0.0007456618702592933 -0.0008720160571761848 -0.0010051221693614621 -0.001144781148934551 -0.0012907496494133186 -0.0014427397424826352 -0.001600418889773965
-0.0017634101063709372 -0.001931292130416437 -0.0021035991778869693 -0.0022798193888000687 -0.0024593901653699787 -0.0026416869569968675 -0.002825999228185827 -0.0030114828297148296
-0.003197071308875833 -0.003381319740854551 -0.003562144260133468 -0.0037364111162286203 -0.003899325733320252 -0.004043582734830691 -0.004158272206619575 -0.004227605327704422
-0.004229628554337512 -0.004135232786309707 -0.003907907055222796 -0.0035047884466783753 -0.002879557466525031 -0.0019875558246649416 -0.0007931215787175225 0.0007214394287125351
0.0025465019785136005 0.004637245429577051 0.006909411970541787 0.009240663675584966 0.011478713971498225 0.013456100431924784 0.01500990431570422 0.01600331615711203
0.016345128516237203 0.016003316157112608 0.015009904315705312 0.013456100431926294 0.011478713971500026 0.009240663675586918 0.0069094119705437424 0.004637245429578891
0.0025465019785152424 0.0007214394287139215 -0.0007931215787164152 -0.0019875558246641063 -0.0028795574665244424 -0.003504788446678 -0.0039079070552225925 -0.004135232786309636
-0.004229628554337539 -0.004227605327704519 -0.0041582722066197215 -0.004043582734830867 -0.0038993257333204503 -0.0037364111162288298 -0.0035621442601336843 -0.0033813197408547714
-0.0031970713088760538 -0.003011482829715049 -0.002825999228186044 -0.002641686956997082 -0.0024593901653701877 -0.002279819388800273 -0.0021035991778871684 -0.0019312921304166291
-0.0017634101063711222 -0.0016004188897741419 -0.0014427397424828041 -0.0012907496494134788 -0.0011447811489347021 -0.0010051221693616042 -0.0008720160571763179 -0.0007456618702594169
-0.0006262149575042114 -0.0005137878225949783 -0.0004084512588880319 -0.00031023573707225036 -0.00021913302446314464 -0.00013509801308898267 -5.8050732633153886e-05 1.2121476400312682e-05
7.556165431109846e-05 0.00013244080372730801 0.00018295538597643194 0.00022732475683880375 0.0002657885655824335 0.00029860414033162534 0.00032604388178618246 0.0003483926861044619

time_axis f8 [60]
00000000: 0000 0000 0000 e0bf 5c8f c2f5 285c dfbf
00000010: b81e 85eb 51b8 debf 15ae 47e1 7a14 debf
00000020: 713d 0ad7 a370 ddbf cdcc cccc cccc dcbf
00000030: 295c 8fc2 f528 dcbf 85eb 51b8 1e85 dbbf
00000040: e17a 14ae 47e1 dabf 3e0a d7a3 703d dabf
00000050: 9a99 9999 9999 d9bf f628 5c8f c2f5 d8bf
00000060: 52b8 1e85 eb51 d8bf ae47 e17a 14ae d7bf
00000070: 0ad7 a370 3d0a d7bf 6766 6666 6666 d6bf
00000080: c3f5 285c 8fc2 d5bf 1f85 eb51 b81e d5bf
00000090: 7b14 ae47 e17a d4bf d7a3 703d 0ad7 d3bf
000000a0: 3333 3333 3333 d3bf 8fc2 f528 5c8f d2bf
000000b0: ec51 b81e 85eb d1bf 48e1 7a14 ae47 d1bf
000000c0: a470 3d0a d7a3 d0bf 0000 0000 0000 d0bf
000000d0: b81e 85eb 51b8 cebf 713d 0ad7 a370 cdbf
000000e0: 295c 8fc2 f528 ccbf e17a 14ae 47e1 cabf
000000f0: 9a99 9999 9999 c9bf 52b8 1e85 eb51 c8bf
00000100: 0ad7 a370 3d0a c7bf c3f5 285c 8fc2 c5bf
00000110: 7b14 ae47 e17a c4bf 3333 3333 3333 c3bf
00000120: ec51 b81e 85eb c1bf a470 3d0a d7a3 c0bf
00000130: b81e 85eb 51b8 bebf 295c 8fc2 f528 bcbf
00000140: 9a99 9999 9999 b9bf 0ad7 a370 3d0a b7bf
00000150: 7b14 ae47 e17a b4bf ec51 b81e 85eb b1bf
00000160: b81e 85eb 51b8 aebf 9a99 9999 9999 a9bf
00000170: 7b14 ae47 e17a a4bf b81e 85eb 51b8 9ebf
00000180: 7b14 ae47 e17a 94bf 7b14 ae47 e17a 84bf
00000190: 0000 0000 0000 0000 7b14 ae47 e17a 843f
000001a0: 7b14 ae47 e17a 943f b81e 85eb 51b8 9e3f
000001b0: 7b14 ae47 e17a a43f 9a99 9999 9999 a93f
000001c0: b81e 85eb 51b8 ae3f ec51 b81e 85eb b13f
000001d0: 7b14 ae47 e17a b43f 0ad7 a370 3d0a b73f
-0.5 -0.49 -0.48 -0.47000000000000003 -0.46 -0.45 -0.44 -0.43
-0.42 -0.41000000000000003 -0.4 -0.39 -0.38 -0.37 -0.36 -0.35000000000000003
-0.34 -0.33 -0.32 -0.31 -0.3 -0.29 -0.28 -0.27
-0.26 -0.25 -0.24 -0.23 -0.22 -0.21 -0.2 -0.19
-0.18 -0.17 -0.16 -0.15 -0.14 -0.13 -0.12 -0.11
-0.1 -0.09 -0.08 -0.07 -0.06 -0.05 -0.04 -0.03
-0.02 -0.01 0.0 0.01 0.02 0.03 0.04 0.05
0.06 0.07 0.08 0.09

dx f8 []
00000000: 9a99 9999 9999 993f
0.025

dt f8 []
00000000: 7b14 ae47 e17a 843f
0.01
