MB_FB_model/CKC STkernels-good parameters.npz (npz, 162921 bytes, 4 tensors)

ST_kernel (column-major) f8 [50, 401]
0.0020973646559607336 0.0032838412143009893 0.004867234877156003 0.005255351374895316 0.005412958947644089 0.005271675319956339 0.006191312833827233 0.006798720536389016
0.006454549556361865 0.0056443347096508225 0.004935989054718835 0.0044173517374616255 0.0036839712669979856 0.0031106546287463736 0.0019504282471295253 0.0006921140484473041
-0.0003092953642969418 -6.402175845854558e-05 8.964826703160636e-05 8.883746238067154e-05 0.0004644555652799842 0.0016111357831411128 0.002706148484297251 0.002545934266160935
0.0023566554701107186 0.0030316843098847778 0.0033958860290221773 0.003752156554503576 0.0040762892345311596 0.0035717782698063104 0.0030133867858722473 0.0026799435013669425
0.003078944480846041 0.0032462607074914725 0.003628347259758746 0.003807615691344727 0.004082331966381259 0.004943117616461051 0.005340333978684084 0.005943897464381819
0.005868276988236315 0.004366266026912818 0.0025817954679945194 0.0017507759108175125 0.0018887565775832713 0.0018760061530169957 0.0027040709820587566 0.003350648640721259
0.0035822845807141055 0.004271289036995921 0.0013716504983944935 0.0024774409248594104 0.004077210340699342 0.004421619856940318 0.004500784283818438 0.004333432091897105
0.005241115726047768 0.005855292562484127 0.005471437151521984 0.00462047327658632 0.003868799640937534 0.003295055848239546 0.002529362602832277 0.001955717238926029
0.0008807984027468666 -0.0002903189762825853 -0.0012797169476073745 -0.0010617310860656808 -0.0008902447478066036 -0.000940334090518532 -0.0006315438912873721 0.0004751256901835534
0.0014227414397108532 0.0011364589084784057 0.0009531147587397281 0.0016092393303885608 0.0019490173735426802 0.0021715897328512587 0.0025321704013227227 0.002070111921424633
0.0016347124651243643 0.0014547149993604845 0.0019907310678979597 0.0022533843508744343 0.0026759360175791823 0.002934995735672194 0.003271127502045985 0.004176652486775428
0.004674380307206691 0.0053658037385260525 0.0054347276746129596 0.004037815979809143 0.0022156717248477888 0.0013274099854605043 0.001464394916061903 0.001462731243001141
0.002239364953797327 0.0028220471311643253 0.0030269370190846735 0.003701722046488234 0.002372814611171154 0.0034694373132477586 0.005168616062282549 0.005556145464504706
0.0056267995846050805 0.00545119594776888 0.006333859320779192 0.006950438256041105 0.006502568120807316 0.005608606512523975 0.004878895285185191 0.00426703460063071
0.0035134492653608827 0.0029351505938763995 0.001929450220558117 0.0008716416793022251 -0.00010858547515076641 0.0001073492038060975 0.0003097212953977208 0.00023098906731372926
0.0004662638887447078 0.001485223955887542 0.002230762116529449 0.0017999630669250435 0.0015685763307605105 0.002185513760525862 0.0024911499751186857 0.0025941955881230517
0.002983741913578043 0.002564334931479576 0.002217358784126063 0.0021691816852441393 0.002828736637005419 0.00316208532440961 0.0036029965980853658 0.00392368340415
0.004327186387481094 0.005249502126887052 0.005812976109456889 0.006568702471172347 0.006765594748883858 0.005474580379214014 0.003639233611901374 0.0027380175100908954
0.00287216559744488 0.002879024864789632 0.00359589449211484 0.004094498678337786 0.004291516828216337 0.005004088539090118 0.0010456442324919596 0.0021840860799788066
0.003947971571048608 0.004301363868457063 0.004335969887580855 0.004154196826082262 0.005033792241311058 0.005692249423717585 0.005224534618825931 0.004289795994522496
0.0035762016006214477 0.0029190542105335107 0.0021204884718092386 0.0014725564050632614 0.0004938482710127409 -0.00048378060547838125 -0.0014312990443506213 -0.0011999883382358648
-0.0009397299197201519 -0.0010181268562020947 -0.0008507224839953082 8.845903504747397e-05 0.000604964576566394 2.364941330993634e-05 -0.00022182525417917276 0.0003810296605951716
0.0006533446920151452 0.000621868333245567 0.0010697903419139725 0.0007126431257314068 0.00043531876216420357 0.0005120896948177247 0.0013211435736915924 0.0017311323928067058
0.0021630469280325285 0.0025182859118432705 0.0029621010322344065 0.003912065745009379 0.004582559039004029 0.0054435123324449814 0.005795799216032148 0.004656136546503702
0.0028220346683064082 0.0018813634566719217 0.00198174873144404 0.00199938160825821 0.002657193282234763 0.00306929103627796 0.003247474719853789 0.003956981366392881
0.0005304309250030231 0.001642631059551184 0.003460085538241153 0.003809785569658062 0.003839482706833419 0.003675487567928334 0.004574401406559337 0.005281124918018704
0.0047944222987281624 0.0038568283644042902 0.003150869705515526 0.0024389743045200715 0.001570303265918512 0.0008464901717697608 -0.00011941973192095576 -0.0010126046308519365
-0.001911583001617078 -0.0016529668822813314 -0.0013577994025770657 -0.001433143969554994 -0.0013521225444710389 -0.000503078303234102 -0.00019007249424391132 -0.0009242887191109501
-0.0012065198284106435 -0.0005733416528604855 -0.0003146390089680889 -0.0004539356575554471 1.0238264055750877e-05 -0.00033068292554610124 -0.0005660470282056094 -0.0003682051677555227
0.0005508506575476902 0.0010051779602612521 0.0014033814427649584 0.0017909066688845073 0.0022483953121059273 0.0031947320295417996 0.00395462316510536 0.004951373603609084
0.005495285343602254 0.004520486313637215 0.0027221944758957445 0.001762782940758462 0.0018379755594229877 0.0018801951559687417 0.002486759444106045 0.0028386723919163635
0.003026775567728532 0.0037713661185746665 -0.001057390927189813 4.2051783322107246e-05 0.0018774866444472476 0.0021942687980889912 0.0021945670879483818 0.002008543364826866
00000000: 9e49 5d13 7e2e 613f a09b dcd3 b6e6 6a3f
00000010: 75cc e869 aaef 733f 92ef 8ba4 a286 753f
00000020: b6bd 791a e62b 763f 9c6d 8291 c097 753f
00000030: 7fde 3fe2 0f5c 793f b625 bca5 f9d8 7b3f
00000040: b26b 14f4 1570 7a3f cd21 c58f 831e 773f
00000050: 98d0 0379 c237 743f 970c f5d3 ed17 723f
00000060: 7c9f 8e03 d92d 6e3f f4a8 c9fc 837b 693f
00000070: ae25 3762 b0f4 5f3f 50e9 019a dfad 463f
00000080: 1032 7679 1d45 34bf a060 6c6f 6dc8 10bf
00000090: 007d 0b80 3180 173f 8088 7afb c749 173f
000000a0: 7051 9c76 4570 3e3f 5a56 dfdf 9765 5a3f
000000b0: aa24 9f67 342b 663f 5450 260d 36db 643f
000000c0: 8c8e 81c5 434e 633f 21dc ce1e e7d5 683f
000000d0: e761 f06d b0d1 6b3f 2334 1db6 d7bc 6e3f
000000e0: e5b8 388f 4cb2 703f 78ab 6fdb 8f42 6d3f
000000f0: dcb2 41b6 87af 683f 4a24 31b6 3ff4 653f
00000100: 5af1 3ebb 0339 693f 28bc 55f2 e697 6a3f
00000110: 7fd8 361a 32b9 6d3f 558c d71b 2631 6f3f
00000120: 4da5 97a4 a2b8 703f 8636 0c08 3c3f 743f
00000130: a453 9cfc bedf 753f 6556 86d3 a058 783f
00000140: ed37 f99b 5509 783f 06dd a89c 5ce2 713f
00000150: e82d 33e3 6a26 653f f6bb e451 49af 5c3f
00000160: 60d6 c5ee 04f2 5e3f 6660 c144 8abc 5e3f
00000170: 605e e30d d926 663f 7113 a2ca d172 6b3f
00000180: 3dee cf63 9858 6d3f 844e 9c6b c57e 713f
00000190: fcaf 0e82 1e79 563f 845a 00f8 914b 643f
000001a0: b1cc 27d1 43b3 703f 67fa e48a 671c 723f
000001b0: b4b7 e214 6a6f 723f 277f d3d1 eebf 713f
000001c0: 60f2 344a b577 753f c0b4 0721 b8fb 773f
000001d0: 7fe7 0bba 3769 763f 7cf5 d6d9 eaec 723f
000001e0: c6e2 d7fd 75b1 6f3f 30f1 69a3 3bfe 6a3f
000001f0: 9fa0 1535 75b8 643f a4ea 9ab2 6f05 603f
00000200: 88fa c52a acdc 4c3f 5ccd 2f82 be06 33bf
00000210: 1f01 0a9c 85f7 54bf 4ad4 ac12 3965 51bf
00000220: e4d2 e309 ea2b 4dbf 4878 4215 18d0 4ebf
00000230: 60ef f52d c6b1 44bf d00c 034d 4923 3f3f
00000240: 72f9 11fd 684f 573f ea24 1776 a79e 523f
00000250: 7a6c eb5b 4e3b 4f3f 7abf e892 a35d 5a3f
00000260: c0a5 3c78 c5ee 5f3f 0ced 405c 27ca 613f
00000270: 3a77 f8a1 58be 643f 66ee 0ce0 56f5 603f
00000280: f85f de24 7bc8 5a3f 9968 3956 84d5 573f
00000290: 3eb8 9d9a dd4e 603f 3851 f482 b075 623f
000002a0: ca69 d035 d8eb 653f 9306 5bd6 210b 683f
000002b0: 5cff 8d34 0dcc 6a3f df39 669d 891b 713f
000002c0: 0abc c668 7125 733f 25f9 2df9 73fa 753f
000002d0: 0c87 009a b942 763f 17eb 49f9 f489 703f
000002e0: b1bf 19b3 9926 623f 36bf 759e 8fbf 553f
000002f0: 8a6e 7711 1efe 573f 7c6c 7fb6 23f7 573f
00000300: 6118 b1e7 4958 623f 441b 5b04 431e 673f
00000310: 64ef 2070 f2cb 683f 1f13 1de4 1253 6e3f
00000320: 5b43 f124 2770 633f cd2f 78f9 ef6b 6c3f
00000330: d9d4 3fcf af2b 753f aa67 fd70 0ac2 763f
00000340: e703 2783 200c 773f 7cb7 1d45 fe53 763f
00000350: 504e 3e6a 88f1 793f 5c80 0a10 1078 7c3f
00000360: 18bb b3d6 6fa2 7a3f b63e c2d8 0cf9 763f
00000370: b233 0c7b e4fb 733f 7b41 f860 4f7a 713f
00000380: d4b0 1bb6 3cc8 6c3f 16b4 e7f9 740b 683f
00000390: d4fd 2d66 b39c 5f3f c1d0 d240 dc8f 4c3f
000003a0: c0b5 2442 0c77 1cbf 40ea 4447 1524 1c3f
000003b0: 20de a8d5 424c 343f a018 cdfa b446 2e3f
000003c0: c06f 4927 9c8e 3e3f 7963 5614 7b55 583f
000003d0: 7ea4 bd4a 3f46 623f 20b1 69a0 977d 5d3f
000003e0: dc6c ae02 16b3 593f ba9a 0bc4 5ae7 613f
000003f0: 11a9 85f5 5168 643f 52ba bb26 6c40 653f
00000400: 9c5f 083e 5c71 683f 2191 55d5 cc01 653f
00000410: ab21 c36e 232a 623f d2e8 b58c 1ac5 613f
00000420: c0b5 096b 4a2c 673f aba9 c6a1 5fe7 693f
00000430: d6d4 cd11 0884 6d3f bd31 69be 4712 703f
00000440: 8a6e 4940 62b9 713f 27c1 487f 8080 753f
00000450: a44f 85e4 58cf 773f 7047 a7a4 c8e7 7a3f
00000460: 217d f382 3db6 7b3f 103e 027b 836c 763f
00000470: 6d52 0fab 06d0 6d3f 80c6 2cf5 096e 663f
00000480: 3d3e e929 5e87 673f f5c1 6fb4 c095 673f
00000490: 06c0 ca27 2375 6d3f 0bef ab9e 64c5 703f
000004a0: 4fb9 d646 fb93 713f 3a67 f2c9 2a7f 743f
000004b0: 9713 09f2 bf21 513f 4803 2049 5ce4 613f
000004c0: d3f3 878c bf2b 703f 25a0 4a92 4e9e 713f
000004d0: d44e d10d 98c2 713f c68f 25b8 fd03 713f
000004e0: fa14 d250 509e 743f 7042 d991 c150 773f
000004f0: b8e0 3155 5266 753f f63a 0c58 2d92 713f
00000500: 0cf1 649d d64b 6d3f fee1 d24b b3e9 673f
00000510: 0a37 6a94 fc5e 613f c413 7b66 5920 583f
00000520: 59f4 2a16 b32e 403f 2c18 04e1 7db4 3fbf
00000530: d2a4 85a5 4d73 57bf ed7f c5aa 1da9 53bf
00000540: a8c4 d9a2 06cb 4ebf 987e 3c63 55ae 50bf
00000550: c8e7 949f 60e0 4bbf e056 77a6 6230 173f
00000560: 18e6 2989 cfd2 433f 0029 ca4e 57cc f83e
00000570: 04d6 9b6c 3813 2dbf 5818 5aee 9df8 383f
00000580: 327f e80a a768 453f fab1 ac13 9c60 443f
00000590: 4ae1 0da2 0687 513f e020 9975 155a 473f
000005a0: 7ce1 c9d8 6f87 3c3f 024b f53e b8c7 403f
000005b0: 8611 4f1c 47a5 553f 1a15 c740 e55c 5c3f
000005c0: 6280 19fa 3cb8 613f 725b 4474 3aa1 643f
000005d0: 45d9 f2e1 f943 683f 1f31 f426 1906 703f
000005e0: d8ad 4553 29c5 723f eb71 17b7 ef4b 763f
000005f0: 9884 6401 56bd 773f 384c 1623 5012 733f
00000600: b946 7953 3c1e 673f 8ac0 2ba1 02d3 5e3f
00000610: aab2 b13f 073c 603f 3286 d4d3 0161 603f
00000620: ba17 e2c7 89c4 653f 0c52 ed13 c524 693f
00000630: 4369 ecb6 729a 6a3f fade f318 3235 703f
00000640: 38eb e2bc 9361 413f a9d7 87ab b1e9 5a3f
00000650: cca9 4c47 5358 6c3f 1583 a50d b335 6f3f
00000660: e6dc 1995 fa73 6f3f dfdd d55c 0e1c 6e3f
00000670: b407 0a87 9bbc 723f 1496 f12c a9a1 753f
00000680: f3b8 9eef 50a3 733f 3ef6 1ff6 5a98 6f3f
00000690: 6a49 da4a dacf 693f 9e55 f55b e6fa 633f
000006a0: 22c5 004b 54ba 593f a858 54cd dfbc 4b3f
000006b0: a8f9 545f 1f4e 1fbf ae89 7df1 2b97 50bf
000006c0: c929 6f9e c251 5fbf e667 d9ac 0b15 5bbf
000006d0: d287 d401 063f 56bf 9460 b39e 0a7b 57bf
000006e0: 12bc f486 3627 56bf 443a 0b6e 207c 40bf
000006f0: 5048 154b c6e9 28bf a0d6 0ae9 7e49 4ebf
00000700: 28b5 1ecd 82c4 53bf bc13 01d3 89c9 42bf
00000710: 848e e940 c49e 34bf 488e becd c6bf 3dbf
00000720: 00cd 144c a078 e53e 50b3 be59 f0ab 35bf
00000730: aca7 b0bc 588c 42bf 9cba 5a27 7521 38bf
00000740: 9024 92c7 de0c 423f 71a6 d29d 0578 503f
00000750: be9b a159 35fe 563f 6ace ac64 9b57 5d3f
00000760: a6eb af0a 3a6b 623f 1382 c3b2 d62b 6a3f
00000770: 3b17 9812 b932 703f fb19 2a3b e447 743f
00000780: a9cd 536d 3982 763f fdbd 10ce 1284 723f
00000790: 3214 ea07 db4c 663f 82fb 26c5 a5e1 5c3f
000007a0: c9d5 c93a 071d 5e3f 8c72 1e2d 1cce 5e3f
000007b0: 18d8 88cf 1c5f 643f e67a cba2 2041 673f
000007c0: ad58 6cc2 9bcb 683f 2a25 7fc4 20e5 6e3f
000007d0: f133 e3dc 0453 51bf 80da d945 180c 063f
000007e0: d416 24ef bfc2 5e3f 93e0 3e17 b7f9 613f
000007f0: c647 e43b 57fa 613f 839f 1082 3874 603f

time_axis f8 [60]
-0.5 -0.49 -0.48 -0.47000000000000003 -0.46 -0.45 -0.44 -0.43
-0.42 -0.41000000000000003 -0.4 -0.39 -0.38 -0.37 -0.36 -0.35000000000000003
-0.34 -0.33 -0.32 -0.31 -0.3 -0.29 -0.28 -0.27
-0.26 -0.25 -0.24 -0.23 -0.22 -0.21 -0.2 -0.19
-0.18 -0.17 -0.16 -0.15 -0.14 -0.13 -0.12 -0.11
-0.1 -0.09 -0.08 -0.07 -0.06 -0.05 -0.04 -0.03
-0.02 -0.01 0.0 0.01 0.02 0.03 0.04 0.05
0.06 0.07 0.08 0.09
00000000: 0000 0000 0000 e0bf 5c8f c2f5 285c dfbf
00000010: b81e 85eb 51b8 debf 15ae 47e1 7a14 debf
00000020: 713d 0ad7 a370 ddbf cdcc cccc cccc dcbf
00000030: 295c 8fc2 f528 dcbf 85eb 51b8 1e85 dbbf
00000040: e17a 14ae 47e1 dabf 3e0a d7a3 703d dabf
00000050: 9a99 9999 9999 d9bf f628 5c8f c2f5 d8bf
00000060: 52b8 1e85 eb51 d8bf ae47 e17a 14ae d7bf
00000070: 0ad7 a370 3d0a d7bf 6766 6666 6666 d6bf
00000080: c3f5 285c 8fc2 d5bf 1f85 eb51 b81e d5bf
00000090: 7b14 ae47 e17a d4bf d7a3 703d 0ad7 d3bf
000000a0: 3333 3333 3333 d3bf 8fc2 f528 5c8f d2bf
000000b0: ec51 b81e 85eb d1bf 48e1 7a14 ae47 d1bf
000000c0: a470 3d0a d7a3 d0bf 0000 0000 0000 d0bf
000000d0: b81e 85eb 51b8 cebf 713d 0ad7 a370 cdbf
000000e0: 295c 8fc2 f528 ccbf e17a 14ae 47e1 cabf
000000f0: 9a99 9999 9999 c9bf 52b8 1e85 eb51 c8bf
00000100: 0ad7 a370 3d0a c7bf c3f5 285c 8fc2 c5bf
00000110: 7b14 ae47 e17a c4bf 3333 3333 3333 c3bf
00000120: ec51 b81e 85eb c1bf a470 3d0a d7a3 c0bf
00000130: b81e 85eb 51b8 bebf 295c 8fc2 f528 bcbf
00000140: 9a99 9999 9999 b9bf 0ad7 a370 3d0a b7bf
00000150: 7b14 ae47 e17a b4bf ec51 b81e 85eb b1bf
00000160: b81e 85eb 51b8 aebf 9a99 9999 9999 a9bf
00000170: 7b14 ae47 e17a a4bf b81e 85eb 51b8 9ebf
00000180: 7b14 ae47 e17a 94bf 7b14 ae47 e17a 84bf
00000190: 0000 0000 0000 0000 7b14 ae47 e17a 843f
000001a0: 7b14 ae47 e17a 943f b81e 85eb 51b8 9e3f
000001b0: 7b14 ae47 e17a a43f 9a99 9999 9999 a93f
000001c0: b81e 85eb 51b8 ae3f ec51 b81e 85eb b13f
000001d0: 7b14 ae47 e17a b43f 0ad7 a370 3d0a b73f

dx f8 []
0.025
00000000: 9a99 9999 9999 993f

dt f8 []
0.01
00000000: 7b14 ae47 e17a 843f
