MB_FB_model/CKC STkernels-good parameters.npz (npz, 323563 bytes, 5 tensors)

ST_kernel (column-major) f8 [50, 401]
00000000: 2655 75e8 d005 7bbf 94b9 9f79 b034 82bf
00000010: 769d 9198 ab6d 85bf dff1 53e0 0786 87bf
00000020: ca61 6c70 ac1c 87bf 2924 9a84 3c1f 85bf
00000030: 285b aa55 e0f5 82bf aa96 8392 aab9 80bf
00000040: 34a3 b015 d1ef 7cbf 0e9b 7177 ed28 79bf
00000050: a4ee 0483 52ef 72bf e6fb 4509 56a0 6abf
00000060: 5e95 e2ab c75d 63bf 2004 b331 2c2c 67bf
00000070: 9ecc e1f8 182d 6ebf 17df 09cb 55b6 74bf
00000080: 94ea 9d2d 4524 78bf d0a1 641f 4ea9 77bf
00000090: 9739 4b48 9c69 75bf ac47 3466 5c50 72bf
000000a0: ca79 8f3c 701b 6fbf d73a 74d1 dbc8 6cbf
000000b0: 8532 662f 98cb 6cbf 34a2 64c6 bf5d 6cbf
000000c0: 40d4 ebc7 09db 68bf 6c85 73b9 3221 62bf
000000d0: 7682 9aa1 5334 5cbf eb39 ea20 220c 59bf
000000e0: 3e81 1078 4f63 59bf b7d5 d3fa 8b4a 64bf
000000f0: d6a0 0705 f2cc 67bf a784 f247 e7cc 6bbf
00000100: bef3 fc13 a986 6fbf 1898 7cda ea96 70bf
00000110: a2ae 0e25 c63e 6ebf 2a0e d1ab 4371 67bf
00000120: a18d c8bc 0ad0 5cbf 499c 90df 4500 53bf
00000130: 9639 0b67 3f9e 49bf 306d f357 9d20 38bf
00000140: e0bd 7dc3 2fab 2e3f 2e1e bf35 a371 513f
00000150: e760 c5bb 7703 5c3f 9a6a fcdd 3ce6 5e3f
00000160: 54a4 ea74 2432 5d3f 36c7 fe7b 52e6 593f
00000170: a895 ef1c 6ada 443f 82bc aba6 2f82 49bf
00000180: 4d75 fa92 8026 61bf db35 bcbd 335d 6bbf
00000190: ba38 b1b8 aacf 76bf aee1 bfaa 0763 80bf
000001a0: 3fbe 355b 2dcc 83bf cc42 31d6 e6f9 85bf
000001b0: 44fd 5034 a997 85bf 9058 1128 a760 83bf
000001c0: 827d dc0d d717 81bf 7e9b 925e 2b8e 7dbf
000001d0: 7a8f 9f63 58dc 78bf bc02 839a 2705 75bf
000001e0: 50db 6d08 0ebc 6dbf 58a3 730b 49b1 61bf
000001f0: ec6b 2175 c822 55bf dcb4 a765 87e5 5dbf
00000200: 5052 e850 5d77 66bf e14a a930 fa7a 71bf
00000210: 8abe 6021 47ad 75bf 3618 238c be2b 75bf
00000220: ea70 0cbd 1ab6 72bf be91 c734 b1ed 6ebf
00000230: 0230 7dbd fbcf 69bf 9acb 50ac c425 68bf
00000240: 3bcb 31ef 4f3e 68bf 67cc 87c0 7918 67bf
00000250: d6af 88f1 e080 63bf 2348 68da 395f 5abf
00000260: 6e9c 6fd9 bed0 53bf 44f3 2d12 9521 50bf
00000270: 469a c063 4f22 51bf 094d fde8 266d 60bf
00000280: 4254 0c2c 25cd 63bf d993 0f28 9f73 67bf
00000290: 8a18 ab87 6047 6bbf 7603 8145 2c94 6cbf
000002a0: fccb fea0 c814 69bf 7dff 3b70 b227 62bf
000002b0: 2aff cdb1 6c57 51bf 6add 6002 8e52 39bf
000002c0: 30c2 85ba 6aaf 0f3f 0aa8 9766 2b30 403f
000002d0: d8b4 3daa cd35 513f de62 54c5 0714 5d3f
000002e0: 2357 f5c8 3da8 633f cb9a 3c6a 329b 643f
000002f0: f3ff 7525 7418 633f ddce 3b97 107c 613f
00000300: 3ebf 7f37 ae32 543f 607e ecb0 8af1 1fbf
00000310: f2ad d8b6 53ec 55bf 96af 5ffc 2e82 64bf
00000320: 32d7 a8f4 a290 7bbf 7ad7 1a2d ef0e 83bf
00000330: 3680 b7ce 6f94 86bf 4b1e 7f12 74cf 88bf
00000340: c877 68c7 a955 88bf 16f3 4c4a e6c6 85bf
00000350: 96a2 3528 b639 83bf 67a0 1889 2bc0 80bf
00000360: 6a92 596d cc99 7cbf e407 67e4 9e97 78bf
00000370: aa43 ffe8 f88e 72bf cca1 6e76 7f7f 68bf
00000380: df85 5ba5 157e 61bf 607a 8d09 f750 66bf
00000390: 1ed4 6677 3438 6ebf 6273 1e10 9cc5 75bf
000003a0: c6c7 f2c4 248a 7abf 8ae0 4521 8423 7abf
000003b0: 82c7 9463 3798 77bf 1458 849d ab3c 74bf
000003c0: 0b65 6efe 46ea 71bf d483 6f6e e240 71bf
000003d0: 6ff1 4824 1e23 71bf 754e c0a2 f32d 70bf
000003e0: d4cf c2ac cdb6 6cbf 7031 6fbe 1fc5 66bf
000003f0: 8a74 5725 d65c 64bf bc68 4f9a 8750 62bf
00000400: b0d0 656d ef21 63bf f9ec 1d2e 4b15 6bbf
00000410: 8287 046c 1ce5 6dbf f4bd 32c5 419c 70bf
00000420: 9854 7722 f180 72bf 48fc 9129 13f8 72bf
00000430: 43e6 2315 b719 71bf 6c67 69c0 f235 6bbf
00000440: 40df a091 5c5f 61bf 9c16 16c9 6ad2 56bf
00000450: 35f8 0fd6 253f 4cbf fa18 1364 5281 3cbf
00000460: 00a1 27d6 3381 f33e b4f2 2dd1 d762 433f
00000470: 7e83 d334 d4a3 533f 6a3c 33eb ba49 543f
00000480: 084a d18e 943c 503f eca5 04d6 ce68 4c3f
00000490: 8079 d098 b2f4 0e3f d603 9987 dbf7 52bf
000004a0: 5ee9 fd16 e6ee 62bf 2980 a9ef b100 6cbf
000004b0: 3cd2 8a8e 951e 84bf bb1a 2084 a2b5 89bf
000004c0: f59d ae95 636f 8dbf a611 4fa6 63ca 8fbf
000004d0: 02a1 5df2 1f51 8fbf ccf3 2bdd aa7f 8cbf
000004e0: 1215 1576 b9c1 89bf b3ff cfc7 d03a 87bf
000004f0: c4d3 08a5 f4b5 84bf ec59 f282 3ea6 82bf
00000500: 046c d075 1b70 7fbf a65a dc5a b908 79bf
00000510: e874 7d2f f691 75bf c49f 36b9 a9ff 77bf
00000520: 32de 65d6 8bde 7bbf 1acd 56fe f159 81bf
00000530: dd7e 873d 2fe7 83bf 14a6 d219 32a8 83bf
00000540: 2255 0956 7f51 82bf c038 4fa2 c3a8 80bf
00000550: 2c59 831f 2c2c 7fbf a438 d644 48b7 7ebf
00000560: 16e6 d0dd f672 7ebf dc8a 308d 9623 7dbf
00000570: e367 68ca 5d1c 7bbf c13d c22d f15e 78bf
00000580: 0334 9db7 79b3 77bf 6102 ecea 80b9 76bf
00000590: 45ac 4be8 1f64 77bf ec5b 7ed3 074a 7bbf
000005a0: 7aa2 a9e6 ca85 7cbf e097 1a74 c029 7ebf
000005b0: c8cb ce28 c915 80bf 3045 abdd 3361 80bf
000005c0: 28c6 5828 eac5 7ebf a008 6a0b 6471 7bbf
000005d0: dace aad2 a941 76bf b96f a51f 75fd 72bf
000005e0: 83c1 802c 755a 70bf 0f45 3e4b 7f34 6dbf
000005f0: 537e 82ad 618c 6abf e2a7 3e9b 644a 67bf
00000600: 0dc5 40c7 a8c2 62bf f7da e195 93c7 62bf
00000610: dc3c 1ff5 cb00 65bf fc09 fcb7 0020 65bf
00000620: 4704 e11a 7f2e 6bbf 6726 0cfd ee37 72bf
00000630: b7a9 e12b 9a8d 76bf 0072 e620 29d0 7abf
00000640: b126 104e d9a9 81bf b3b7 cc78 795f 87bf
00000650: 8749 1c35 de16 8bbf b490 a9bf 4b7b 8dbf
00000660: c224 e877 4f03 8dbf 8655 2983 8cf0 89bf
00000670: 18e8 4886 a017 87bf 0b6d 64a3 3293 84bf
00000680: dcdc 82d2 d51e 82bf 94f3 405c f304 80bf
00000690: 94e5 bd6a a971 7abf bdd5 5568 3413 74bf
000006a0: b23e acc6 f7ba 70bf 1104 3567 9d3b 73bf
000006b0: f7d8 2f2a f905 77bf ae55 f5ed 79ba 7dbf
000006c0: c09f f739 b876 81bf 79ab 5afb 6a29 81bf
000006d0: ed9e 65be 798a 7fbf 2405 45c7 ff37 7cbf
000006e0: 86cc 5a56 0811 7abf e6a5 94e9 dc9c 79bf
000006f0: 9e8e 42b5 09f1 78bf 58b2 2ee4 4e1e 77bf
00000700: b58c b99c 8bee 74bf f5ea 12e7 d881 72bf
00000710: 7082 3b83 136d 72bf b486 b877 e686 71bf
00000720: 53a1 e474 606b 72bf 1aef 6904 b943 76bf
00000730: 00be 9d9e 715a 77bf dece be92 84e3 78bf
00000740: 7421 7e79 d019 7bbf 1da1 bd94 d6d6 7bbf
00000750: a453 5989 afbd 79bf 01e4 7a9c beb5 76bf
00000760: ba1a 005c 1b7c 71bf d6c5 bd5b 33c7 6bbf
00000770: 561e 6748 7fb7 65bf 51d2 15d8 060c 62bf
00000780: 67ee 0a45 4c53 60bf 4e5b e6f3 1905 5dbf
00000790: c81c 9301 6a49 55bf 445a d85d 51b0 56bf
000007a0: fe0c 30aa 3e5a 5bbf 280a 8188 f7d9 59bf
000007b0: 1fc3 c8f7 3754 62bf cd78 a19e 6eb3 6abf
000007c0: 4e9e 9a97 df14 71bf d86d 03a9 cf25 75bf
000007d0: e6ef 6197 e91b 81bf 141a 9cf9 d3e4 86bf
000007e0: 8616 e780 d689 8abf d210 ccfc 61f1 8cbf
000007f0: 545e 67b0 8d6f 8cbf 52b7 ad49 4b11 89bf
-0.006597343489678031 -0.008889559470813414 -0.010463085740595384 -0.011486112149662496 -0.011285159283532038 -0.010313484951682455 -0.009258034338285606 -0.00816663035989092
-0.007064644562924372 -0.006142547229592633 -0.004622766792006825 -0.0032502823252680167 -0.002364053710226229 -0.0028286803404573707 -0.003683613561457812 -0.005056700829861225
-0.005893964984233908 -0.00577669636394558 -0.005227671125523157 -0.004471169409287084 -0.003797263347663481 -0.0035137456249068988 -0.0035150501600525485 -0.0034626718144361805
-0.003034133056071059 -0.0022130957328136327 -0.001721460028797276 -0.0015287717139106326 -0.0015495563568564542 -0.0024769529323928857 -0.002905342764496148 -0.0033936040122886815
-0.003848390799161965 -0.004050176044790653 -0.0036920423521758653 -0.0028616258337324134 -0.0017585854394689198 -0.001159733043331961 -0.0007818040449707904 -0.0003681549205347299
0.00023398359348501731 0.0010646909567969642 0.0017098111412306384 0.0018859476476282056 0.001781974413157768 0.0015807919989864866 0.0006363886003525792 -0.0007784588500196062
-0.0020935546124990823 -0.003340340668620751 -0.005569140320473115 -0.008001384638178202 -0.009666780801779072 -0.010730555926927642 -0.010543176564282171 -0.00946169463183491
-0.008346252546799663 -0.007215661441626218 -0.006069512624865209 -0.0051318690313457115 -0.0036297105866042526 -0.002159731545920012 -0.0012900312035728457 -0.0018247434842309429
-0.0027424643115046346 -0.004267670922291273 -0.005292203763061951 -0.005168670965025204 -0.004568199584152869 -0.0037754498537074513 -0.0031509320068945365 -0.0029476968070638156
-0.0029594002931444797 -0.002819288060203418 -0.002380790083654087 -0.0016096177074627147 -0.0012094367755197915 -0.0009845691463105802 -0.0010457778253197977 -0.002005172725981223
-0.002417156793294712 -0.0028627499127531317 -0.0033299336767838627 -0.003488623111508489 -0.003061668256088888 -0.0022161946416189835 -0.001058441302319533 -0.00038639037154860353
6.0434765432830126e-05 0.0004940235059482944 0.0010504253814034772 0.0017747951399710786 0.002399559663596744 0.002515409914752941 0.0023309963686983736 0.0021343540228090222
0.0012327863059872902 -0.00012185486796711378 -0.0013380830308830052 -0.002503482598504146 -0.006729733033855644 -0.009305828632345959 -0.011025308128353211 -0.01211443597266206
-0.011882139585448828 -0.010633277075265773 -0.009387419797989776 -0.008179035302490157 -0.006982611220881377 -0.006003971741337797 -0.004530880265478135 -0.0029904832367330988
-0.002135317113115972 -0.002724153990512776 -0.003688909982168655 -0.005315408345180158 -0.006479400282090658 -0.006381527073578872 -0.005760399211156899 -0.004940672275798991
-0.004373814887821635 -0.004212269303907019 -0.004183881512798456 -0.003950072958122432 -0.003505136212050156 -0.002779542922757887 -0.002485674146312682 -0.0022356651775058117
-0.002335517531884511 -0.003306052051753047 -0.0036492877117248477 -0.004055268206840424 -0.0045174998590101975 -0.0046311138659112586 -0.004174914518665643 -0.003321622966990503
-0.0021206672654691394 -0.0013929407908518715 -0.0008620199915865325 -0.00043495427605612336 1.8601128781188005e-05 0.0005916169924230137 0.0011987278297100608 0.0012382817629264195
0.0009910059700543056 0.000866986269135226 5.904359850482637e-05 -0.0011577266544835394 -0.002311181444324336 -0.003418300181962781 -0.009823959744019388 -0.012553472191951234
-0.014372613912043678 -0.015522745621532174 -0.015291452011027665 -0.013915381312011997 -0.012576531330192018 -0.011342650506776275 -0.010112677847340275 -0.009106148120093992
-0.007675273195697056 -0.006111835520434516 -0.005266153013363729 -0.005859053594953371 -0.006804033508494055 -0.008472338270485259 -0.009718293252205462 -0.009598151600886097
-0.00894450646698403 -0.008134392157355896 -0.007610485416270667 -0.007499010372511137 -0.00743385727133152 -0.007114017574198352 -0.006618849153278791 -0.0059499188465816375
-0.005786395509699285 -0.005548003754257098 -0.005710720670985718 -0.0066623979290829465 -0.006963532049305438 -0.007364036342243779 -0.007854053075652248 -0.007997899248410961
-0.007512964895384701 -0.0066999347678821375 -0.005433715220238356 -0.004636247171529045 -0.0039925171950446784 -0.003565071698127149 -0.003240767266177427 -0.0028430905312761693
-0.0022900864078329087 -0.002292431118856238 -0.002563856462962739 -0.0025787366902261227 -0.0033180696982815536 -0.0044478736388185785 -0.005506136161879053 -0.006546173723475324
-0.008624742216869792 -0.011412571906102764 -0.01322721099453329 -0.01439532450348966 -0.014166470381513089 -0.0126658418204595 -0.011275533769652 -0.010046382533394757
-0.008847876059333286 -0.007821942570552833 -0.006456052575111743 -0.0049011275453855726 -0.004084556460625487 -0.0046955250321057 -0.005620930957766604 -0.007257915770727248
-0.008527220982571637 -0.008379779620857996 -0.007700419961430544 -0.006889342436182919 -0.006363899772327325 -0.006253111781270948 -0.006089246675546582 -0.005644138497626537
-0.005110307083302225 -0.004518363262088644 -0.004498554440687572 -0.004279041542334095 -0.004496933730742408 -0.005435679172133745 -0.0057014883294495 -0.006076352943569422
-0.006616415361243678 -0.006796682555297443 -0.006284413995293035 -0.005544418883510539 -0.004268748161854569 -0.003390884694390843 -0.0026509748451848765 -0.0022030004189963833
-0.0019928445475139614 -0.0017712357945122883 -0.0012992415634458954 -0.0013848108859570033 -0.0016694652520080062 -0.001577846271189851 -0.0022374241946398056 -0.0032593880214753846
-0.004170297057192919 -0.005163012669267407 -0.00835402005417758 -0.011178642325387712 -0.012958217438505015 -0.014132276084190574 -0.013884646364132149 -0.012240017114631439

ssSTk f8 [50, 401]
00000000: 96b4 3fb6 8bf7 99be 9846 ab56 0d93 9ebe
00000010: 6606 ddd6 17ac a1be b5f7 e765 9320 a4be
00000020: c7fe d9e9 aba3 a6be b6c3 42a1 a931 a9be
00000030: 80c7 4832 68c6 abbe 499d cb0e 555d aebe
00000040: f095 014b b778 b0be 34fa e003 a2be b1be
00000050: 269a df2e 7bfd b2be 687d b30f 1d32 b4be
00000060: 21f0 4e22 2d59 b5be 38e7 d31d 1e6f b6be
00000070: 5081 f892 3270 b7be bdf5 682f 8058 b8be
00000080: c1c4 42af f323 b9be cc31 3585 55ce b9be
00000090: 0af1 2141 4f53 babe 9a86 44bc 71ae babe
000000a0: 1440 ed10 3cdb babe 042e bc62 23d5 babe
000000b0: 8173 ff7a 9b97 babe f830 653b 201e babe
000000c0: 6ff9 92e7 3f64 b9be 271c 6a44 a665 b8be
000000d0: 294c c889 281e b7be a9d1 6e21 d289 b5be
000000e0: ff42 672b f2a4 b3be 51e7 bbbd 296c b1be
000000f0: bdc1 57a5 f5b8 adbe 87f0 51ab afe6 a7be
00000100: 1a70 cf78 675d a1be 1b12 7158 4a34 94be
00000110: c3c1 947a a7d9 70be 3e14 95bf da7e 8a3e
00000120: b28a 7d26 6215 a03e be6d f95b e642 aa3e
00000130: 0480 c238 c791 b23e b0bf 2e1c 5b58 b83e
00000140: 22fb 5adb d470 be3e 5c73 9388 e16a c23e
00000150: 743e f72f 47c0 c53e b22c 9607 b634 c93e
00000160: 13b7 340b a9c3 cc3e 3432 2836 fb33 d03e
00000170: d450 b7b5 e50d d23e 408b 0fa9 54ec d33e
00000180: 9be1 28da b1cb d53e c777 7410 10a8 d73e
00000190: 1a12 24b5 2b7d d93e ccfe dc57 6c46 db3e
000001a0: d07d a527 e7fe dc3e 73cd 1472 62a1 de3e
000001b0: 7227 881b 2d14 e03e e545 3bec 02c7 e03e
000001c0: b5bf ae70 2f66 e13e aa8b 0367 94ee e13e
000001d0: 0c14 49d1 fc5c e23e 1e90 f87c 21ae e23e
000001e0: e41d 4b85 adde e23e ea5d 6578 42eb e23e
000001f0: 592d 31b6 7bd0 e23e b9db 1d9e f08a e23e
00000200: 7bab 9d3b 3517 e23e 0cc1 fc64 d971 e13e
00000210: aeae 4fb5 6697 e03e 0f2e 73db bc08 df3e
00000220: 64e8 4c0f 726a dc3e dd1c 21df d34c d93e
00000230: 0a1b c187 d4a8 d53e 0084 129b 9a77 d13e
00000240: 50e4 2e1d 8265 c93e 06fa af17 bb52 bd3e
00000250: 2dc3 8518 1890 953e 5350 a7b7 f20b b5be
00000260: 97db 1770 c4ff c8be 79a2 35b8 c35b d4be
00000270: 5beb 5fe8 efd1 dcbe 8d55 687d 69ed e2be
00000280: e378 6ab4 1625 e8be ad59 b6e9 343d edbe
00000290: f83c 5e47 f946 f1be 83d4 0b79 7c07 f4be
000002a0: 8ec5 d884 8fdb f6be 8aa3 8164 42be f9be
000002b0: 4522 efc5 4faa fcbe d3b1 5d82 1b9a ffbe
000002c0: bef0 fc4e d543 01bf 4e4c aa95 4bb6 02bf
000002d0: 3bd0 a26f 0121 04bf 1aaa 2c7b 4580 05bf
000002e0: c66b 30b8 1fd0 06bf 4333 016b 4f0c 08bf
000002f0: d35c 8d78 4b30 09bf 871b ff21 4537 0abf
00000300: 093d 7ed7 2c1c 0bbf 1d0b 2eca b8d9 0bbf
00000310: 8ba6 d2ec 6c6a 0cbf ffe7 8c26 a4c8 0cbf
00000320: 44f0 9c92 9aee 0cbf 9e62 b7bc 78d6 0cbf
00000330: 5a3a 01d8 5f7a 0cbf 412d a6f6 76d4 0bbf
00000340: c0ce 3a4a f9de 0abf a07c 5f73 4594 09bf
00000350: 0671 04e3 edee 07bf 68c3 824a cae9 05bf
00000360: 70ec 4412 0a80 03bf e73f 5bc9 47ad 00bf
00000370: 8c46 74f6 3adb fabe 68ca 00a8 737b f3be
00000380: da13 d7db d76b e6be dbe8 5566 be36 c0be
00000390: 2f51 f2a1 ca27 e03e f31a a36e 8a1a f33e
000003a0: b006 d7a7 4a0b ff3e 6d13 638b 0ff1 053f
000003b0: 090d 06b1 4ccc 0c3f f2a1 80d9 6d09 123f
000003c0: 6d0c 141d 6edf 153f ffcc b22a 7de4 193f
000003d0: 4719 13ba 2d14 1e3f 1743 553d a334 213f
000003e0: 6437 9324 dd6e 233f 4220 92bb 50b5 253f
000003f0: b21a d924 1a04 283f 99e4 8369 e356 2a3f
00000400: 60a1 b425 e3a8 2c3f 413f 2206 dcf4 2e3f
00000410: 9842 d093 8e9a 303f 3670 4db4 c1b1 313f
00000420: a7aa addd bdbc 323f 701b 4d43 03b8 333f
00000430: 676e 1c10 de9f 343f d7c7 1836 6970 353f
00000440: 2a18 d9d3 9125 363f 67b5 0333 1bbb 363f
00000450: 9710 3b61 a32c 373f 74cc b163 a875 373f
00000460: 329d 1f04 8e91 373f 88d1 4334 a47b 373f
00000470: c94f 8303 2e2f 373f 35bb 8120 69a7 363f
00000480: e856 dcde 95df 353f 607a 6db7 ffd2 343f
00000490: 60c4 bd37 067d 333f 2ac6 8953 26d9 313f
000004a0: 1cfa 1913 08c6 2f3f 636b 3696 e82c 2b3f
000004b0: bb45 fb28 0edf 253f 6793 3b8a 46aa 1f3f
000004c0: 1f4e dbc2 e210 123f b39b 3c26 552f e73e
000004d0: ca95 ce7b 32c2 0bbf 17af a217 7526 20bf
000004e0: 3d4d 3cb8 3632 2abf 1759 9003 228b 32bf
000004f0: 49e7 f734 ff69 38bf fa62 2a30 d3b5 3ebf
00000500: 177b 644c 13b7 42bf 82b9 330f f248 46bf
00000510: 7b28 7e86 a90f 4abf 0316 676d 090a 4ebf
00000520: baaf 8ff1 451b 51bf ed18 2324 aa49 53bf
00000530: afef f055 178f 55bf 4fc0 9cde 47ea 57bf
00000540: 7842 e88e ca59 5abf abb9 38db 02dc 5cbf
00000550: b162 1c9e 286f 5fbf bc0c 6049 a308 61bf
00000560: 952c 19e2 1a60 62bf d71f e048 c9bc 63bf
00000570: 8cbb 0593 521d 65bf 27bf 2c69 1980 66bf
00000580: ad12 e599 13e3 67bf 8f94 b3a1 7d43 69bf
00000590: e089 f120 5b9d 6abf dba6 52a3 adea 6bbf
000005a0: 9aaa 9b79 4922 6dbf b476 f287 3536 6ebf
000005b0: bfcb 53b8 9311 6fbf 432e 7cfa 3096 6fbf
000005c0: 1935 f6a8 0f9a 6fbf 382a 9f5e 82e5 6ebf
000005d0: 0329 1c5b b332 6dbf da26 2a9c a62f 6abf
000005e0: 2b67 1898 c383 65bf 3b5d 3c5f 3eb3 5dbf
000005f0: db85 3874 0db4 47bf 93e7 7892 9f8f 453f
00000600: abda d38d b906 633f 1983 2c80 db52 713f
00000610: 374b ea84 dbcf 793f e16e 3198 ae42 813f
00000620: adcf 0250 de70 853f 19c8 ab3d 6922 893f
00000630: 7bc4 5cea 6709 8c3f 3a34 6e00 6fe4 8d3f
00000640: 8c37 b678 e187 8e3f 6b35 6e00 6fe4 8d3f
00000650: b8c6 5cea 6709 8c3f 33cb ab3d 6922 893f
00000660: 5ed3 0250 de70 853f e372 3198 ae42 813f
00000670: 3f53 ea84 dbcf 793f a88a 2c80 db52 713f
00000680: 29e8 d38d b906 633f 2215 7992 9f8f 453f
00000690: 7961 3874 0db4 47bf 814f 3c5f 3eb3 5dbf
000006a0: 5662 1898 c383 65bf c623 2a9c a62f 6abf
000006b0: 5727 1c5b b332 6dbf a329 9f5e 82e5 6ebf
000006c0: 5235 f6a8 0f9a 6fbf 0d2f 7cfa 3096 6fbf
000006d0: f3cc 53b8 9311 6fbf 2778 f287 3536 6ebf
000006e0: 3bac 9b79 4922 6dbf 94a8 52a3 adea 6bbf
000006f0: a88b f120 5b9d 6abf 5d96 b3a1 7d43 69bf
00000700: 7e14 e599 13e3 67bf f5c0 2c69 1980 66bf
00000710: 54bd 0593 521d 65bf 9b21 e048 c9bc 63bf
00000720: 4d2e 19e2 1a60 62bf 6b0e 6049 a308 61bf
00000730: f665 1c9e 286f 5fbf d3bc 38db 02dc 5cbf
00000740: 8345 e88e ca59 5abf 37c3 9cde 47ea 57bf
00000750: 76f2 f055 178f 55bf 901b 2324 aa49 53bf
00000760: 37b2 8ff1 451b 51bf ad1a 676d 090a 4ebf
00000770: da2c 7e86 a90f 4abf 91bd 330f f248 46bf
00000780: d57e 644c 13b7 42bf cb69 2a30 d3b5 3ebf
00000790: 83ed f734 ff69 38bf bd5e 9003 228b 32bf
000007a0: 4757 3cb8 3632 2abf dab7 a217 7526 20bf
000007b0: 83b4 ce7b 32c2 0bbf bf31 3c26 552f e73e
000007c0: 2e43 dbc2 e210 123f a38a 3b8a 46aa 1f3f
000007d0: 4742 fb28 0edf 253f d268 3696 e82c 2b3f
000007e0: 7bf8 1913 08c6 2f3f c7c5 8953 26d9 313f
000007f0: 5ac4 bd37 067d 333f af7a 6db7 ffd2 343f
-3.869380889021994e-07 -4.555943948050664e-07 -5.266737568081561e-07 -5.998387669345879e-07 -6.747049671878781e-07 -7.508395492209253e-07 -8.277603212368485e-07 -9.049349763674441e-07
-9.817806976506706e-07 -1.0576641353978921e-06 -1.1319017931777106e-06 -1.2037608588184849e-06 -1.2724605167177272e-06 -1.3371737773146708e-06 -1.397029858803205e-06 -1.4511171550068968e-06
-1.4984868217766757e-06 -1.538157012276255e-06 -1.5691177890622904e-06 -1.5903367379183879e-06 -1.6007653049383883e-06 -1.5993458743504517e-06 -1.5850196000068316e-06 -1.5567349983146473e-06
-1.513457304632903e-06 -1.454178588796012e-06 -1.3779286184331316e-06 -1.2837864511286293e-06 -1.1708927282092177e-06 -1.0384626340496025e-06 -8.857994752681008e-07 -7.123088240491818e-07
-5.175131591000768e-07 -3.0106692644843004e-07 -6.277193044936382e-08 1.9740704696784134e-07 4.793265135745585e-07 7.826485485905912e-07 1.1068252403836917e-06 1.4510834353935295e-06
1.8144099675346385e-06 2.1955375514151782e-06 2.592931536794628e-06 3.0047777356871528e-06 3.4289715472789232e-06 3.863108619228456e-06 4.304477296785721e-06 4.750053123256045e-06
5.196495666264304e-06 5.640147953371193e-06 6.077038806621732e-06 6.502888366288501e-06 6.913117085310475e-06 7.302858450675272e-06 7.666975634829552e-06 8.000082181966242e-06
8.296566667315026e-06 8.5506210045267e-06 8.756271690954865e-06 8.907412762111706e-06 8.997838599879766e-06 9.021274092787174e-06 8.97139915969371e-06 8.841864602022552e-06
8.62629700622784e-06 8.318292344350785e-06 7.911401249636445e-06 7.399113591332047e-06 6.774855354769059e-06 6.0320157775968634e-06 5.164025534360218e-06 4.164505683552401e-06
3.0275007047689774e-06 1.7477969709297582e-06 3.2131176699091437e-07 -1.254479427549773e-06 -2.9801238958753688e-06 -4.853833959963231e-06 -6.871239412116168e-06 -9.025283287870576e-06
-1.1513174866192545e-05 -1.3942283934292898e-05 -1.647686118349826e-05 -1.9101374678383048e-05 -2.179876201164259e-05 -2.4550629206396574e-05 -2.7337341062668467e-05 -3.013799882671689e-05
-3.2930323753595125e-05 -3.5690480861515745e-05 -3.8392883611321604e-05 -4.101001777308631e-05 -4.3512313844660695e-05 -4.586808552229382e-05 -4.804354018144723e-05 -5.000285841521347e-05
-5.170833440992269e-05 -5.312056716546261e-05 -5.4198693399354595e-05 -5.490065524900444e-05 -5.5183498558681227e-05 -5.50036998807114e-05 -5.431752197237036e-05 -5.308139846523864e-05
-5.1252348638367636e-05 -4.8788423029349744e-05 -4.56491801534582e-05 -4.179619401279458e-05 -3.7193591455119616e-05 -3.1808617831807603e-05 -2.5612228822308308e-05 -1.8579705738550756e-05
-1.0691291090556281e-05 -1.9328406774518523e-06 7.703512038305896e-06 1.8218684012772994e-05 2.960596838420007e-05 4.185036361684697e-05 5.49279121768946e-05 6.880505532137047e-05
8.343801097869678e-05 9.87721820589378e-05 0.00011474160284583478 0.0001312684313839122 0.00014826249597493367 0.00016562090403149555 0.00018322772159447758 0.00020095373179865732
0.0002186562804607035 0.00023617921676021873 0.0002533529366824188 0.00026999453648613185 0.00028590808294974085 0.0003008850065281876 0.0003147046228251016 0.00032713478694567977
0.00033793268434967555 0.0003468457607727821 0.0003536127926333592 0.0003579650980959977 0.00035962788763162494 0.0003583217515050964 0.0003537642801465483 0.00034567181183480243
0.0003337613005539434 0.0003177522952934383 0.0002973690204646825 0.0002723425455207507 0.00024241303031043236 0.0002073320311922435 0.00016686485149945509 0.00012079291860407419
6.891616859699315e-05 1.1055418503836756e-05 -5.294529498848682e-05 -0.00012321643209155998 -0.00019986074413989334 -0.0002829511682319748 -0.00037252884519000225 -0.0004686012836514899
-0.0005711406927594057 -0.0006800825052815514 -0.0007953241119918042 -0.0009167238265994085 -0.0010441000979381902 -0.0011772309813280993 -0.0013158538711328484 -0.001459665475021427
-0.00160832196309371 -0.0017614391225709662 -0.001918592134137292 -0.0020793141547997534 -0.002243092066043293 -0.002409356245156129 -0.0025774586467188273 -0.0027466293626260577
-0.0029158957324021046 -0.0030839399092764184 -0.0032488612992420535 -0.003407801758460544 -0.003556388383789977 -0.0036879582908813883 -0.0037925610691842133 -0.0038557964907164634
-0.0038576417788990344 -0.0037715479165616704 -0.0035642149968043726 -0.003196549806777732 -0.0026263065526678417 -0.0018127545453746191 -0.0007233682339952656 0.0006579903756069753
0.002322542581733108 0.004229409622696045 0.006301743981242328 0.008427967090191614 0.010469185654393554 0.01227266520934127 0.013689815368339566 0.014595858765256254
0.014907609459239322 0.014595858765256783 0.01368981536834056 0.012272665209342648 0.010469185654395193 0.008427967090193394 0.006301743981244111 0.004229409622697723
0.0023225425817346057 0.0006579903756082398 -0.0007233682339942558 -0.0018127545453738572 -0.0026263065526673053 -0.0031965498067773905 -0.003564214996804187 -0.003771547916561606
-0.003857641778899059 -0.003855796490716551 -0.003792561069184347 -0.003687958290881549 -0.003556388383790158 -0.0034078017584607354 -0.0032488612992422512 -0.003083939909276619
-0.0029158957324023063 -0.002746629362626258 -0.002577458646719025 -0.002409356245156325 -0.002243092066043484 -0.0020793141547999403 -0.0019185921341374735 -0.0017614391225711414
-0.001608321963093879 -0.0014596654750215884 -0.0013158538711330026 -0.0011772309813282457 -0.0010441000979383283 -0.000916723826599538 -0.0007953241119919255 -0.0006800825052816641
-0.0005711406927595095 -0.0004686012836515845 -0.00037252884519008866 -0.00028295116823205316 -0.000199860744139963 -0.00012321643209162078 -5.2945294988540114e-05 1.1055418503790806e-05
6.891616859695519e-05 0.00012079291860404377 0.00016686485149943113 0.00020733203119222568 0.00024241303031042105 0.00027234254552074535 0.00029736902046468216 0.00031775229529344256

time_axis f8 [60]
00000000: 0000 0000 0000 e0bf 5c8f c2f5 285c dfbf
00000010: b81e 85eb 51b8 debf 15ae 47e1 7a14 debf
00000020: 713d 0ad7 a370 ddbf cdcc cccc cccc dcbf
00000030: 295c 8fc2 f528 dcbf 85eb 51b8 1e85 dbbf
00000040: e17a 14ae 47e1 dabf 3e0a d7a3 703d dabf
00000050: 9a99 9999 9999 d9bf f628 5c8f c2f5 d8bf
00000060: 52b8 1e85 eb51 d8bf ae47 e17a 14ae d7bf
00000070: 0ad7 a370 3d0a d7bf 6766 6666 6666 d6bf
00000080: c3f5 285c 8fc2 d5bf 1f85 eb51 b81e d5bf
00000090: 7b14 ae47 e17a d4bf d7a3 703d 0ad7 d3bf
000000a0: 3333 3333 3333 d3bf 8fc2 f528 5c8f d2bf
000000b0: ec51 b81e 85eb d1bf 48e1 7a14 ae47 d1bf
000000c0: a470 3d0a d7a3 d0bf 0000 0000 0000 d0bf
000000d0: b81e 85eb 51b8 cebf 713d 0ad7 a370 cdbf
000000e0: 295c 8fc2 f528 ccbf e17a 14ae 47e1 cabf
000000f0: 9a99 9999 9999 c9bf 52b8 1e85 eb51 c8bf
00000100: 0ad7 a370 3d0a c7bf c3f5 285c 8fc2 c5bf
00000110: 7b14 ae47 e17a c4bf 3333 3333 3333 c3bf
00000120: ec51 b81e 85eb c1bf a470 3d0a d7a3 c0bf
00000130: b81e 85eb 51b8 bebf 295c 8fc2 f528 bcbf
00000140: 9a99 9999 9999 b9bf 0ad7 a370 3d0a b7bf
00000150: 7b14 ae47 e17a b4bf ec51 b81e 85eb b1bf
00000160: b81e 85eb 51b8 aebf 9a99 9999 9999 a9bf
00000170: 7b14 ae47 e17a a4bf b81e 85eb 51b8 9ebf
00000180: 7b14 ae47 e17a 94bf 7b14 ae47 e17a 84bf
00000190: 0000 0000 0000 0000 7b14 ae47 e17a 843f
000001a0: 7b14 ae47 e17a 943f b81e 85eb 51b8 9e3f
000001b0: 7b14 ae47 e17a a43f 9a99 9999 9999 a93f
000001c0: b81e 85eb 51b8 ae3f ec51 b81e 85eb b13f
000001d0: 7b14 ae47 e17a b43f 0ad7 a370 3d0a b73f
-0.5 -0.49 -0.48 -0.47000000000000003 -0.46 -0.45 -0.44 -0.43
-0.42 -0.41000000000000003 -0.4 -0.39 -0.38 -0.37 -0.36 -0.35000000000000003
-0.34 -0.33 -0.32 -0.31 -0.3 -0.29 -0.28 -0.27
-0.26 -0.25 -0.24 -0.23 -0.22 -0.21 -0.2 -0.19
-0.18 -0.17 -0.16 -0.15 -0.14 -0.13 -0.12 -0.11
-0.1 -0.09 -0.08 -0.07 -0.06 -0.05 -0.04 -0.03
-0.02 -0.01 0.0 0.01 0.02 0.03 0.04 0.05
0.06 0.07 0.08 0.09

dx f8 []
00000000: 9a99 9999 9999 993f
0.025

dt f8 []
00000000: 7b14 ae47 e17a 843f
0.01
