MB_FB_model/CKC STkernels-good parameters.npz (npz, 162900 bytes, 4 tensors)

ST_kernel (column-major) f8 [50, 401]
0.026605347680473894 0.02657728685109062 0.029414958454728482 0.03431646952332099 0.03426539645544177 0.023052722648864907 0.02609187080176938 0.020775631092745245
0.02138975298520117 0.0214615466972366 0.017706930305299306 0.011094501136638608 0.01232462531368097 0.012991341401124732 0.005895658656402413 0.0053450326580591016
-0.00021384882762207763 0.0022238428722024268 0.002225360148111411 0.0024810434868595866 0.0004209787703328121 0.00010275378155925348 -0.008265073445103445 -0.005152035336674147
-0.005083615215943849 0.0017853842495781352 -0.0011156873083256124 0.0001375192292491739 -0.003830401032703634 -0.0027104688254936714 0.002651870409799894 0.003238036640537776
-0.004163095421046799 -0.0026228409550947372 0.0044581089748867726 -0.0007426670020783555 0.0048163853727656815 0.0030548502262315027 0.004486562655095939 0.0028273366212984785
-0.00014289076877397082 -0.0033513770823388423 -0.0036345201634974014 0.005089272277351622 -0.0038779199052519754 -0.0093298280493541 0.0023237162793273832 0.003047260722705583
-0.000162504427101166 0.000230973590169064 0.025679591088243466 0.02546160691804359 0.028074925833910046 0.03328515749019584 0.033745281962554066 0.022018503776962812
0.02491515773434988 0.019959994470756946 0.02079311932323938 0.021084357404798432 0.017001799182890402 0.01015223566965228 0.011452132560470436 0.011883174314182293
0.004770877707423631 0.004185637755640676 -0.0014290844413159956 0.001302023252135587 0.0019239327905331014 0.0019171921452933558 -0.0005265987343559403 -0.0009874776486454816
-0.009638411106662616 -0.006197404660825487 -0.006447842308396536 0.0007907588031356655 -0.002591558413209437 -0.0010370943717960355 -0.005042773708878201 -0.003668575752419991
0.001802381737760427 0.0016713033721355301 -0.00551824756726361 -0.0040430700774463126 0.003324380568131616 -0.0017169493829492627 0.003368396977600397 0.0017281049158475587
0.0033057731853547074 0.0014704184572006153 -0.001784517149836393 -0.004668244152669579 -0.004662959772988193 0.0039462271774286335 -0.0050160989035019435 -0.01049643137359127
0.0004540052186700213 0.001105075799855229 -0.0015391722693501768 -0.001072511839810771 0.02484593197509937 0.024388002404554528 0.02684101861950575 0.03245181245746109
0.03347320528966819 0.021083972298270352 0.023926015853386162 0.019147229046152008 0.02008308230159627 0.020609852916451205 0.01628567678790378 0.009267200741926503
0.010874848315435476 0.010928042452525126 0.0037417480028528374 0.003079299078090363 -0.0023925447123867355 0.0006344340843485903 0.0017876963347218692 0.001578674389743926
-0.00144434043607998 -0.001965058691416717 -0.010932894162615711 -0.007207027089242147 -0.007366006451785435 0.00030463727139004495 -0.003653161046748174 -0.00201179638871521
-0.005903684868578748 -0.004416845570993417 0.0013913507213089192 0.0005702917687743876 -0.006368910459328328 -0.0050481721041954804 0.002477788832259444 -0.0021352185794603915
0.0023285217568822904 0.0007515356866419701 0.002374493067168066 0.0005479462102106099 -0.002998306787251057 -0.005421498824642266 -0.005171682342141877 0.003348575445418604
-0.005665788094547336 -0.01102059120689311 -0.0008112076020549055 -0.0001410403663564489 -0.002302596416107616 -0.0019483867908033068 0.024476518235309754 0.023946248704016095
0.026146506707919945 0.03200467530447716 0.03367361379536485 0.020771531057990414 0.02349104187367481 0.018662886965259588 0.019548775867984442 0.020459827085310696
0.01591753740889193 0.008883133215355679 0.010824196715668673 0.010255055887696568 0.003285493238046884 0.0024470401064556196 -0.0027586186492015094 0.0005935849863872534
0.0021613726015334176 0.0016840980469408412 -0.001563052198597847 -0.0021528160305970294 -0.011236627292354608 -0.007483670389307429 -0.007671960726337411 0.0002432705975602598
-0.004212858922509059 -0.002491112282337618 -0.006298911965831528 -0.004770186418244953 0.0013346895336063553 0.0002618995936777605 -0.006471763452146154 -0.00545605567787284
0.002330363635995654 -0.0018545545812526632 0.0018357340558670578 0.0003672793859435756 0.0021175807920713807 0.00038847109666375994 -0.0034492700844527243 -0.005409744870032552
-0.004792318236055727 0.003446684207375495 -0.005787267576682252 -0.010941964509886864 -0.001522649050373638 -0.0009833353417926095 -0.0026054315753447597 -0.0023143163325984517
0.022178749424320583 0.021660353227782002 0.02364062356193735 0.02962744816634954 0.03180318771229621 0.018625208469388706 0.021334301029889036 0.016502442724106135
0.01747497371593621 0.018790967120029096 0.014166876781859237 0.006886019086080295 0.008986452181167736 0.007927751823884124 0.0012422637238161324 0.0005994047974635704
-0.004646134890919796 -0.0010130984204130954 0.0008185180215985162 0.00015611429688060447 -0.0032645160562174208 -0.003997445705521364 -0.013035025263357309 -0.009387649038745465
-0.009582327468745858 -0.0015165803319146117 -0.006291126363444007 -0.004486077210105354 -0.008315765053758832 -0.0067592497446625505 -0.0005618958129917349 -0.0020085058031579584
-0.008338913760525282 -0.007341198225362615 0.0005146957183955992 -0.0033603911857416806 -0.0005676406475573778 -0.0018082540920779907 0.0001656704663253114 -0.0014732814412798348
-0.005463769375678361 -0.006810851397850958 -0.006007581271332576 0.0020359194384943708 -0.0074667763644925104 -0.012195030217282058 -0.0037180095555604687 -0.003300420575179596
-0.0043062663462458284 -0.004390055269098719 0.021198826745265277 0.0207988228199985 0.022557745313242367 0.028431212929413363 0.03122576590031794 0.017870202458235392
00000000: 2ed1 bea8 6e3e 9b3f a00c 5e87 1337 9b3f
00000010: 7416 4e72 f41e 9e3f 6d39 a2a4 ed91 a13f
00000020: bc39 52ea 3b8b a13f d949 7107 229b 973f
00000030: ede5 23cf d3b7 9a3f 986e 6300 3546 953f
00000040: bcf0 2906 32e7 953f 50ad be04 04fa 953f
00000050: 5395 4bfa c321 923f 97dd 60bc b6b8 863f
00000060: 4dff 4235 a73d 893f 1f8e 9753 349b 8a3f
00000070: 8ccd e1d1 0b26 783f 1a0e 6647 ace4 753f
00000080: 000d 1d71 9307 2cbf c4aa 0a8d bc37 623f
00000090: 68cf da21 eb3a 623f a93d 5a14 2053 643f
000000a0: e01b 070d da96 3b3f 744a 7d86 b0ef 1a3f
000000b0: d482 2a61 47ed 80bf 512d 76f4 4c1a 75bf
000000c0: b41b 9191 8ed2 74bf f864 9dbd 7140 5d3f
000000d0: e1d4 1d20 8847 52bf 705b 342f 6106 223f
000000e0: 4c17 50e5 ee60 6fbf 4a59 cbde 4334 66bf
000000f0: 4bc3 dd15 60b9 653f e2f3 2daf a786 6a3f
00000100: 2fb6 ef6a 520d 71bf 78e1 fd03 7f7c 65bf
00000110: 227d fc83 aa42 723f 90e3 2c3e f155 48bf
00000120: 3b4c 939a 58ba 733f be61 1b3a 7c06 693f
00000130: 7460 007e 8060 723f 9225 58ca 5a29 673f
00000140: 70a4 895b 9eba 22bf 76fe e2de 5874 6bbf
00000150: e7da a427 24c6 6dbf c3db dd1f 7dd8 743f
00000160: da12 6d65 96c4 6fbf f752 cb52 841b 83bf
00000170: 1ebb 98ad 2f09 633f 395b afa4 91f6 683f
00000180: c05b 5366 be4c 25bf 503a 3308 3046 2e3f
00000190: ff39 982f c04b 9a3f ca00 1184 9b12 9a3f
000001a0: e654 2d61 acbf 9c3f c8a6 b98d c00a a13f
000001b0: dad0 d8c4 0f47 a13f 6500 84c6 048c 963f
000001c0: d029 93ee 5b83 993f 89c4 eb8d 6470 943f
000001d0: c88a e69d ca4a 953f 250b 0b46 2397 953f
000001e0: 4ecd da6d eb68 913f bca3 7501 b2ca 843f
000001f0: 178e 8836 3774 873f 03a9 6aa8 3456 883f
00000200: 4527 a0bb a08a 733f 3ac3 5f94 f524 713f
00000210: c43e 13bc 036a 57bf 34e6 56d2 1455 553f
00000220: 040b 901a 8f85 5f3f 3293 1b64 4969 5f3f
00000230: 8059 cc2b 6e41 41bf f0b1 360d c82d 50bf
00000240: b47c e8a3 4dbd 83bf d7c5 6925 7362 79bf
00000250: 5c5e 827d 0d69 7abf c82d 6899 5de9 493f
00000260: ca4d 2c54 e43a 65bf a802 399a e3fd 50bf
00000270: 9a79 9242 bba7 74bf 3836 259c 8f0d 6ebf
00000280: fcf4 96a7 bc87 5d3f 8212 cd54 f461 5b3f
00000290: 8a72 524d 4d9a 76bf 040c 215c 778f 70bf
000002a0: 8706 3a3a bb3b 6b3f 36c1 b65c 6821 5cbf
000002b0: 1bca 7a5b 0a98 6b3f c070 3f86 3250 5c3f
000002c0: adcd 0277 b514 6b3f 90dd d8cb 6117 583f
000002d0: c27d 0db3 ce3c 5dbf 3685 723f 021f 73bf
000002e0: 3d09 a4bb 7719 73bf ebda b64a eb29 703f
000002f0: e898 e7cb c28b 74bf d054 cb2b 277f 85bf
00000300: 18a9 ff90 f1c0 3d3f a6f0 e01a 061b 523f
00000310: d441 d3a3 c137 59bf ef28 b3d1 7092 51bf
00000320: 8e36 1645 3671 993f a225 f822 2bf9 983f
00000330: a9fe a544 367c 9b3f e0c4 6622 869d a03f
00000340: b9d8 0564 6623 a13f 0e9f f66d 0997 953f
00000350: a09a 74be 0f80 983f eebc 3fca 549b 933f
00000360: febf c0d6 a890 943f 9890 01d1 bf1a 953f
00000370: f301 ca44 31ad 903f e475 e5a0 aefa 823f
00000380: f0f8 e86e 8d45 863f 8f0c 8b07 7161 863f
00000390: ac04 aba9 03a7 6e3f 2454 b81a c239 693f
000003a0: 4ec8 67a9 8799 63bf a03b 66d2 04ca 443f
000003b0: 0c64 bd52 244a 5d3f 5cb8 ffb7 70dd 593f
000003c0: c0f7 fbbb 00aa 57bf f632 0fda 0619 60bf
000003d0: 9852 0837 fc63 86bf 0118 659a 1d85 7dbf
000003e0: 8e2d 004d d12b 7ebf f0b5 251e f7f6 333f
000003f0: fa36 21e7 3bed 6dbf 4286 43f6 0a7b 60bf
00000400: 16a4 fb56 762e 78bf fa5e 76f4 6517 72bf
00000410: 1432 1976 bfcb 563f 5806 7f3f f4af 423f
00000420: 1dbb 2462 4916 7abf e63c 7961 64ad 74bf
00000430: d1c4 07c0 4c4c 643f c2b8 febe e07d 61bf
00000440: 5a16 6799 4313 633f 4063 1399 56a0 483f
00000450: db97 2d42 ac73 633f a0dc c286 81f4 413f
00000460: 941c 07b3 e78f 68bf 7eb0 5a82 da34 76bf
00000470: bb94 65e8 e62e 75bf 6f22 d7c0 786e 6b3f
00000480: 9383 2769 0235 77bf 308f 87b6 f691 86bf
00000490: b0f4 7f0f e794 4abf 40e3 9685 877c 22bf
000004a0: ccbd b209 e5dc 62bf 7a2d f962 20ec 5fbf
000004b0: 0ac7 5c55 5f10 993f 07ba 2e8c 5d85 983f
000004c0: 1c53 dc5c 26c6 9a3f a2ef 80b3 ea62 a03f
000004d0: e47b fafb aa3d a13f 14e2 53da 2145 953f
000004e0: a6b6 6222 090e 983f 31b0 a824 5d1c 933f
000004f0: 058b 1e24 9804 943f 8257 dac0 6bf3 943f
00000500: 688b 6ada af4c 903f 28ef 2af5 5131 823f
00000510: 31b3 3117 ff2a 863f f01e 404d 9a00 853f
00000520: 76c8 46c0 2dea 6a3f 60d4 55a7 d00b 643f
00000530: 70b2 2c1c 3e99 66bf d892 4d0d 5a73 433f
00000540: 66f5 6a14 bab4 613f 9c48 3b82 9e97 5b3f
00000550: 9877 cb84 ea9b 59bf 0654 434e c8a2 61bf
00000560: ae6e e795 3a03 87bf 8dc8 3779 32a7 7ebf
00000570: 3e2e a746 a26c 7fbf b052 6d85 cee2 2f3f
00000580: 44a8 b7b4 8041 71bf 86d3 10b9 3d68 64bf
00000590: 6e4e 4c4e e3cc 79bf c54f 982a e789 73bf
000005a0: 88f3 6af9 17de 553f 58fa 8e30 f229 313f
000005b0: 6a9b fdc5 2282 7abf cdd4 39cb 1659 76bf
000005c0: 9027 5773 2017 633f f6ae 9bd1 9062 5ebf
000005d0: d888 fb6e a013 5e3f a0c5 7cf3 ec11 383f
000005e0: 2e67 f487 e358 613f e031 d6a7 7675 393f
000005f0: fa42 a6c6 a441 6cbf 0e70 be54 8728 76bf
00000600: 68bd 8821 1ca1 73bf 1b00 697e 383c 6c3f
00000610: 8bcf 99cf 63b4 77bf d6a9 ca9d bd68 86bf
00000620: 061b faf7 73f2 58bf be75 9348 681c 50bf
00000630: f8eb 0e6d fc57 65bf ae67 c11e 79f5 62bf
00000640: 7248 c6ad 06b6 963f 16ba eeb2 212e 963f
00000650: cee6 3864 3f35 983f 9eed c063 a856 9e3f
00000660: 6506 44e6 8148 a03f 3261 0795 7c12 933f
00000670: 9058 d3b4 a8d8 953f d672 372f 04e6 903f
00000680: e201 6fa2 f5e4 913f 9283 f674 f03d 933f
00000690: 7f64 b703 8603 8d3f 57b9 63ac 8334 7c3f
000006a0: e62c cd31 7d67 823f 28dd 83d6 6c3c 803f
000006b0: e068 4684 6e5a 543f 3028 4700 2ca4 433f
000006c0: 7483 8c56 d307 73bf 38d8 5425 3e99 50bf
000006d0: e858 2511 3ad2 4a3f 5056 5d99 5376 243f
000006e0: 8eeb 5bb6 2fbe 6abf cefb 2929 a05f 70bf
000006f0: 7d52 ab79 1bb2 8abf 89a5 dcec d439 83bf
00000700: f558 c838 e69f 83bf 4660 59bb ffd8 58bf
00000710: 22a3 c65f b9c4 79bf bfc9 792e fe5f 72bf
00000720: 6fb0 9317 db07 81bf 62c6 9449 96af 7bbf
00000730: f4d4 fd11 8669 42bf 52e3 a057 2474 60bf
00000740: 2ec0 150f fe13 81bf 0584 a9e4 cd11 7ebf
00000750: e23c 92a3 94dd 403f aa2a d347 4087 6bbf
00000760: 089e 3102 b799 42bf 74a6 0d0c 5ea0 5dbf
00000770: 001f 3578 fab6 253f ed1e ebe6 6323 58bf
00000780: 65b7 806c 2d61 76bf 65dd 2f00 b2e5 7bbf
00000790: 5c3b 6ad1 679b 78bf 32df faec a1ad 603f
000007a0: 4c33 ac84 7b95 7ebf b5d9 a73f b5f9 88bf
000007b0: 24ac 502e 3b75 6ebf 7ec1 decd 7b09 6bbf
000007c0: d2f6 ff91 72a3 71bf e040 ef7c 4efb 71bf
000007d0: 1a83 562e 25b5 953f 8e90 3a5f 494c 953f
000007e0: 3847 91a9 6019 973f 50a9 de66 121d 9d3f
000007f0: 8e71 56ad a5f9 9f3f 0f2a 86fc 904c 923f

time_axis f8 [60]
-0.5 -0.49 -0.48 -0.47000000000000003 -0.46 -0.45 -0.44 -0.43
-0.42 -0.41000000000000003 -0.4 -0.39 -0.38 -0.37 -0.36 -0.35000000000000003
-0.34 -0.33 -0.32 -0.31 -0.3 -0.29 -0.28 -0.27
-0.26 -0.25 -0.24 -0.23 -0.22 -0.21 -0.2 -0.19
-0.18 -0.17 -0.16 -0.15 -0.14 -0.13 -0.12 -0.11
-0.1 -0.09 -0.08 -0.07 -0.06 -0.05 -0.04 -0.03
-0.02 -0.01 0.0 0.01 0.02 0.03 0.04 0.05
0.06 0.07 0.08 0.09
00000000: 0000 0000 0000 e0bf 5c8f c2f5 285c dfbf
00000010: b81e 85eb 51b8 debf 15ae 47e1 7a14 debf
00000020: 713d 0ad7 a370 ddbf cdcc cccc cccc dcbf
00000030: 295c 8fc2 f528 dcbf 85eb 51b8 1e85 dbbf
00000040: e17a 14ae 47e1 dabf 3e0a d7a3 703d dabf
00000050: 9a99 9999 9999 d9bf f628 5c8f c2f5 d8bf
00000060: 52b8 1e85 eb51 d8bf ae47 e17a 14ae d7bf
00000070: 0ad7 a370 3d0a d7bf 6766 6666 6666 d6bf
00000080: c3f5 285c 8fc2 d5bf 1f85 eb51 b81e d5bf
00000090: 7b14 ae47 e17a d4bf d7a3 703d 0ad7 d3bf
000000a0: 3333 3333 3333 d3bf 8fc2 f528 5c8f d2bf
000000b0: ec51 b81e 85eb d1bf 48e1 7a14 ae47 d1bf
000000c0: a470 3d0a d7a3 d0bf 0000 0000 0000 d0bf
000000d0: b81e 85eb 51b8 cebf 713d 0ad7 a370 cdbf
000000e0: 295c 8fc2 f528 ccbf e17a 14ae 47e1 cabf
000000f0: 9a99 9999 9999 c9bf 52b8 1e85 eb51 c8bf
00000100: 0ad7 a370 3d0a c7bf c3f5 285c 8fc2 c5bf
00000110: 7b14 ae47 e17a c4bf 3333 3333 3333 c3bf
00000120: ec51 b81e 85eb c1bf a470 3d0a d7a3 c0bf
00000130: b81e 85eb 51b8 bebf 295c 8fc2 f528 bcbf
00000140: 9a99 9999 9999 b9bf 0ad7 a370 3d0a b7bf
00000150: 7b14 ae47 e17a b4bf ec51 b81e 85eb b1bf
00000160: b81e 85eb 51b8 aebf 9a99 9999 9999 a9bf
00000170: 7b14 ae47 e17a a4bf b81e 85eb 51b8 9ebf
00000180: 7b14 ae47 e17a 94bf 7b14 ae47 e17a 84bf
00000190: 0000 0000 0000 0000 7b14 ae47 e17a 843f
000001a0: 7b14 ae47 e17a 943f b81e 85eb 51b8 9e3f
000001b0: 7b14 ae47 e17a a43f 9a99 9999 9999 a93f
000001c0: b81e 85eb 51b8 ae3f ec51 b81e 85eb b13f
000001d0: 7b14 ae47 e17a b43f 0ad7 a370 3d0a b73f

dx f8 []
0.025
00000000: 9a99 9999 9999 993f

dt f8 []
0.01
00000000: 7b14 ae47 e17a 843f
