MB_FB_model/ST_kernel.npy (npy, 544448 bytes, 1 tensors)

array f8 [40, 1701]
0	0x3ef5e1474a0c0000	2.0866388356743926e-05
1	0x3ef57ce109810000	2.0492371362701434e-05
2	0x3ef54dd2ff6a0000	2.0317078418319312e-05
3	0x3ef548b8ad470000	2.0298068948099157e-05
4	0x3ef556e0c3d90000	2.0350806371860486e-05
5	0x3ef558a45f4a0000	2.0357378121449443e-05
6	0x3ef5294350ba0000	2.0180877113862294e-05
7	0x3ef4a3cd64430000	1.9683697488614982e-05
8	0x3ef3a87257f30000	1.8747324699530665e-05
9	0x3ef2217ffbbe0000	1.7290934678282355e-05
10	0x3ef0076241600000	1.528629589842012e-05
11	0x3eeac640e1a20000	1.2767041926986522e-05
12	0x3ee49e19c6d40000	9.831228647616541e-06
13	0x3edbd67931180000	6.637045559809707e-06
14	0x3ecc75379b400000	3.3924436255716728e-06
15	0x3e96d36634c00000	3.401306016836969e-07
16	0xbec2f5c92e600000	-2.260220173688765e-06
17	0xbed168b288f20000	-4.1506228988241745e-06
18	0xbed55c1a54140000	-5.09256762026844e-06
19	0xbed47aa83f520000	-4.882605016409691e-06
20	0xbecc39fa327c0000	-3.364857906862362e-06
21	0xbe9d87be04800000	-4.4003491384003723e-07
22	0x3ed07ae043dc0000	3.929134491320596e-06
23	0x3ee4603192d80000	9.715917793862161e-06
24	0x3ef1a5fef2320000	1.6830846231830066e-05
25	0x3efa58b7c6180000	2.5126032033639945e-05
26	0x3f0209682aee0000	3.440236229490523e-05
27	0x3f0749de38b30000	4.4419378434579215e-05
28	0x3f0cc99119c38000	5.49075514031383e-05
29	0x3f11312a60e44000	6.558247716648147e-05
30	0x3f13f7078dca8000	7.616027455492613e-05
31	0x3f16a468b2bc0000	8.637322451576779e-05
32	0x3f192969575f8000	9.598451092029947e-05
33	0x3f1b79111c2a0000	0.0001048008626103325
34	0x3f1d89f5b87cc000	0.00011268198261116247
35	0x3f1f569692cb8000	0.00011954587962348384
36	0x3f206eb44bed8000	0.0001253695572485114
37	0x3f211047f3110000	0.00013018492021110717
38	0x3f2192a60a32a000	0.00013407017568067836
39	0x3f21f9915480c000	0.00013713740395493446
40	0x3f22496cae6d8000	0.0001395173232721092
41	0x3f2286ab63a0c000	0.00014134256508802068
42	0x3f22b541e8bd0000	0.00014273099474770845
43	0x3f22d8253180c000	0.00014377073307647592
44	0x3f22f0e6b796e000	0.00014450851794634012
45	0x3f22ff799054c000	0.00014494284565946813
46	0x3f2302295cd90000	0.000145022915988946
47	0x3f22f5c6707b6000	0.0001446537719320684
48	0x3f22d603b1498000	0.0001437072284202756
49	0x3f229dfb68a82000	0.0001420373340155212
50	0x3f2248c9cbc2c000	0.000139498360913759
51	0x3f21d227e3b18000	0.00013596283847316926
52	0x3f2136f0d74b0000	0.00013133707002133121
53	0x3f20757ef60c8000	0.00012557196443996332
54	0x3f1f1ba9ddea0000	0.00011866783413871929
55	0x3f1d032237cf0000	0.00011067291593658268
56	0x3f1aa7659f014000	0.00010167653795289944
57	0x3f181083e47cc000	9.179883010967949e-05
58	0x3f1547dc126fc000	8.117943490026924e-05
59	0x3f125773a29d4000	6.996768266032127e-05
60	0x3f0e930f56fe0000	5.831614077944636e-05
61	0x3f0850cf6f7d0000	4.637845080290859e-05
62	0x3f01fd2a7cef8000	3.4311160213240655e-05
63	0x3ef75c3cc66a0000	2.227812037824961e-05
64	0x3ee5ed1bcf3e0000	1.045522956366618e-05
65	0xbeb0390c86a00000	-9.669570553150209e-07
66	0xbee8b6f5d3700000	-1.1784881833065697e-05
67	0xbef6d8fb96448000	-2.1789158737850478e-05
68	0xbf0022dc7bb00000	-3.077731476963663e-05
69	0xbf0438e56fae0000	-3.8570882643362836e-05
70	0xbf079c70db64c000	-4.503459369897822e-05
71	0xbf0a439d9b424000	-5.009484030538136e-05
72	0xbf0c2ed0daf00000	-5.375456691325553e-05
73	0xbf0d69ebdcfc0000	-5.6102285837411614e-05
74	0xbf0e0c88d8614000	-5.7313848672024825e-05
75	0xbf0e3935aa098000	-5.7646703912395125e-05
76	0xbf0e1bc5d44a8000	-5.742738224978616e-05
77	0xbf0de6edd6a40000	-5.703366589848713e-05
78	0xbf0dd16490c14000	-5.6873208536090125e-05
79	0xbf0e12c498594000	-5.7360291105923444e-05
80	0xbf0ee05b62998000	-5.889204869613529e-05
81	0xbf103502b0dbe000	-6.182507442165086e-05
82	0xbf116b95b563e000	-6.645299194818488e-05
83	0xbf1321f9ca02e000	-7.298552600587538e-05
84	0xbf155f5fbbed2000	-8.152982534881392e-05
85	0xbf18231053c9e000	-9.207522539067536e-05
86	0xbf1b63be12252000	-0.00010448310471133926
87	0xbf1f0f4fbc078000	-0.0001184837738104072
88	0xbf2185a1b47c2000	-0.00013368224085064107
89	0xbf239adfdfc3f000	-0.00014957411611493665
90	0xbf25b3ab6d0b0000	-0.00016557185747068104
91	0xbf27bab3359e9000	-0.00018104016890874153
92	0xbf299a73bc8e7000	-0.00019533789443648697
93	0xbf2b3eb549aae000	-0.00020786250100512937
94	0xbf2c95f84788f000	-0.00021809249644089146
95	0xbf2d92a7703e2000	-0.00022562307287565808
96	0xbf2e2bed477b6000	-0.00023019095873766382
97	0xbf2e5e15efadf000	-0.00023168580795729365
98	0xbf2e2a75a12e1000	-0.00023014722736658388
99	0xbf2d96dc485c7000	-0.00022574843404121747
100	0xbf2cacad48f78000	-0.00021876921935781724
101	0xbf2b77bcc1314000	-0.0002095621026421135
102	0xbf2a051870247000	-0.00019851611438859162
103	0xbf2861e140138000	-0.00018602251660748692
104	0xbf269a5422126000	-0.00017244603171628903
105	0xbf24b916f86fd000	-0.00015810399437976574
106	0xbf22c6d2c2152000	-0.00014325449687135894
107	0xbf20ca191766e000	-0.0001280933026472919
108	0xbf1d8f13f00ec000	-0.00011275824728218531
109	0xbf198451e8f72000	-9.733915270893068e-05
110	0xbf15779c87ab0000	-8.189099200262007e-05
111	0xbf116b4221b8e000	-6.644812713652026e-05
112	0xbf0ac22e05e2c000	-5.103781653426065e-05
113	0xbf02b676c5338000	-3.569173773043666e-05
114	0xbef572d004428000	-2.045487077906305e-05
115	0xbed69d37ec9e0000	-5.39162983581587e-06
116	0x3ee3bc3548980000	9.410470982906816e-06
117	0x3ef8ff4444570000	2.383912603476368e-05
118	0x3f03cba9a1018000	3.775702873620723e-05
119	0x3f0abd7bd4a30000	5.100282813108592e-05
120	0x3f109e3f4e5d4000	6.33932246192348e-05
121	0x3f1396cf59920000	7.47264915776924e-05
122	0x3f163a05d84cc000	8.478794741217932e-05
123	0x3f187925c658c000	9.335797366172294e-05
124	0x3f1a45da5904c000	0.00010022301853918059
125	0x3f1b9328143b0000	0.00010518962977368318
126	0x3f1c568890794000	0.00010810097239155603
127	0x3f1c891befe18000	0.00010885460867049446
128	0x3f1c28d03c084000	0.0001074196907284719
129	0x3f1b3957a3bbc000	0.00010385129365508838
130	0x3f19c4c505c78000	9.829952745787907e-05
131	0x3f17dbaba0af0000	9.101138145606313e-05
132	0x3f1594ab02770000	8.232396850527124e-05
133	0x3f130b61e1170000	7.264885814262101e-05
134	0x3f105ed69d804000	6.244835765323309e-05
135	0x3f0b5eeee69e0000	5.2205720591835814e-05
136	0x3f0639c6d0628000	4.2392139264935125e-05
137	0x3f01876abb2c0000	3.343386142340421e-05
138	0x3efaee2bb0de0000	2.5682787103686877e-05
139	0x3ef455e48f350000	1.939346198054359e-05
140	0x3eeed89bfa0c0000	1.470858097851746e-05
141	0x3ee870bee0060000	1.1654096852664608e-05
142	0x3ee545ff1b100000	1.014395897591669e-05
143	0x3ee4f53d6e1c0000	9.993538188535211e-06
144	0x3ee6f162cab00000	1.094003376600483e-05
145	0x3eea90e6a05e0000	1.2667665042931375e-05
146	0x3eef1c9a7a9e0000	1.4835229950938e-05
147	0x3ef1ef38ef540000	1.710363627172029e-05
148	0x3ef4178db7810000	1.916123025602623e-05
149	0x3ef5c0b9045b0000	2.074510873373292e-05
150	0x3ef6b5859b180000	2.1657056725743473e-05
151	0x3ef6d4b71db60000	2.1773261193569482e-05
152	0x3ef611e383c10000	2.104747567011067e-05
153	0x3ef47496d3470000	1.9507814799757384e-05
154	0x3ef215ec69510000	1.7247809030118688e-05
155	0x3eee39c5278c0000	1.4412720007239699e-05
156	0x3ee7737fd92a0000	1.118238904962432e-05
157	0x3ee041db16400000	7.752060533050553e-06
158	0x3ed216b95c740000	4.312697860386905e-06
159	0x3eb151ba0a800000	1.0323074466356275e-06
160	0xbec071abd0640000	-1.960280886170729e-06
161	0xbed33e2cb8420000	-4.587857692084363e-06
162	0xbedca83765940000	-6.832383939725517e-06
163	0xbee2528bc81c0000	-8.73682279545207e-06
164	0xbee5cfe746d80000	-1.0400830627865787e-05
165	0xbee91a8e7d9d0000	-1.1970394485083524e-05
166	0xbeec914de8fd0000	-1.3622090846987511e-05
167	0xbef04c5b8acf8000	-1.5543243239934945e-05
168	0xbef2c79f3a350000	-1.790978752791439e-05
169	0xbef5e0a496ea0000	-2.0864020763955438e-05
170	0xbef9af33ce2b0000	-2.4494537579355935e-05
171	0xbefe387271e50000	-2.8820511141391947e-05
172	0xbf01b626ffab4000	-3.378206743820389e-05
173	0xbf04926bbb6d8000	-3.923789284132617e-05
174	0xbf0793d686050000	-4.4970497358409744e-05
175	0xbf0a94ae7c334000	-5.069882856789665e-05
176	0xbf0d693fbca74000	-5.609727630295769e-05
177	0xbf0fe310b9170000	-6.081957611625555e-05
178	0xbf10ea3f8a032000	-6.452572643234067e-05
179	0xbf118a3d2299a000	-6.690977229484307e-05
180	0xbf11c106a4e40000	-6.772616436379053e-05
181	0xbf1183b3db4dc000	-6.681237466721335e-05
182	0xbf10ce0d2d08a000	-6.410556239500043e-05
183	0xbf0f4645a2888000	-5.965137490115957e-05
184	0xbf0c1a89b4f70000	-5.360348461236342e-05
185	0xbf083aa2412d8000	-4.6213223092506084e-05
186	0xbf03d2b9ce9d8000	-3.780965364685862e-05
187	0xbefe2b4cf8438000	-2.8771537032734606e-05
188	0xbef470cfff4f8000	-1.9493745600729362e-05
189	0xbee5b57732900000	-1.0351586370305199e-05
190	0xbebbf7ca6b080000	-1.6670186760991967e-06
191	0x3eda813cefa40000	6.319245352992553e-06
192	0x3eec3db120d00000	1.346635056087564e-05
193	0x3ef4b301638e0000	1.9740333502493712e-05
194	0x3efa6ef01b7c0000	2.520880818135396e-05
195	0x3eff7b8ef6510000	3.0024194888733646e-05
196	0x3f0208cfd8300000	3.4397929105978164e-05
197	0x3f0438ad4d0d0000	3.8569248892006414e-05
198	0x3f066cdc416d8000	4.2772742907315475e-05
199	0x3f08c040b2380000	4.7208761568384716e-05
200	0x3f0b4604bc100000	5.2020091523274914e-05
201	0x3f0e079b0f148000	5.7277125856680655e-05
202	0x3f108201069c4000	6.297236691588104e-05
203	0x3f12181ad63fc000	6.902374076367401e-05
204	0x3f13bc4c764f4000	7.528511703402962e-05
205	0x3f15618492910000	8.156177195051129e-05
206	0x3f16f8a3b16a4000	8.762835600806262e-05
207	0x3f1871b647584000	9.324717560610374e-05
208	0x3f19bd17bdde8000	9.818513305370757e-05
209	0x3f1acc6d1d0d0000	0.0001022283170302174
210	0x3f1b937040414000	0.00010519383073526178
211	0x3f1c088bd4204000	0.0001069388718237807
212	0x3f1c254c05ed8000	0.00010736729153171254
213	0x3f1be6a835448000	0.00010643388424513844
214	0x3f1b4d28613c4000	0.00010414656599899708
215	0x3f1a5ce6fd404000	0.00010056648108069943
216	0x3f191d6ea50c8000	9.580600568570574e-05
217	0x3f17997376aa0000	9.002463563412277e-05
218	0x3f15de699bc54000	8.342284758566798e-05
219	0x3f13fbfd18418000	7.623417155988577e-05
220	0x3f1203715cd80000	6.871585284073944e-05
221	0x3f1006f08fb58000	6.113856573142229e-05
222	0x3f0c31a519e90000	5.377564524566836e-05
223	0x3f0895c4c9048000	4.6892230900263954e-05
224	0x3f055b4e396e0000	4.073460075115776e-05
225	0x3f029f6512d00000	3.5519859331145653e-05
226	0x3f0079efb51c8000	3.142607478268111e-05
227	0x3efdf8ae9f1c0000	2.858296824737039e-05
228	0x3efc60c33fbe0000	2.706334997482074e-05
229	0x3efc2e60fc080000	2.687565552328408e-05
230	0x3efd50f3d5430000	2.7958126637583902e-05
231	0x3effa422dcb80000	3.0175358729067625e-05
232	0x3f0177df8c918000	3.331805198381055e-05
233	0x3f03746464b08000	3.7106813202791855e-05
234	0x3f0599de47310000	4.120072926427909e-05
235	0x3f07b42377190000	4.5211155236035694e-05
236	0x3f098b2fb0128000	4.872073442041547e-05
237	0x3f0ae65334950000	5.130711958623024e-05
238	0x3f0b8fdbccba0000	5.257024312488312e-05
239	0x3f0b58fab0660000	5.216136019026152e-05
240	0x3f0a1d97e82f8000	4.981155236527535e-05
241	0x3f07c7b79dc60000	4.535702803121211e-05
242	0x3f04521348b08000	3.875848150181049e-05
243	0x3eff9323e73b0000	3.0112043943431033e-05
244	0x3ef49ac1af950000	1.9649999534410156e-05
245	0x3ee0363c3b5e0000	7.730415614082276e-06
246	0xbed5be3a92800000	-5.1839545349707805e-06
247	0xbef3750c828a0000	-1.8555853019908142e-05
248	0xbf00ad7689394000	-3.180997842078259e-05
249	0xbf0743854d314000	-4.437208703989004e-05
250	0xbf0d34d55c7e4000	-5.5706750173745156e-05
251	0xbf112190bcc12000	-6.535001665597395e-05
252	0xbf131e84fbe12000	-7.293402356467471e-05
253	0xbf14800917372000	-7.820182309281609e-05
254	0xbf153ca1cc7ee000	-8.101213018008036e-05
255	0xbf15524df7d38000	-8.133507613505842e-05
