MB_FB_model/STkernels-good parameters.npz (npz, 482258 bytes, 4 tensors)

ST_kernel f8 [30, 2000]
000000 81 76 6a d8 24 87 50 bf 5d 4a 95 a6 3c 54 50 bf
       -0.0010087833231077483 -0.0009966461460250355
000010 2f 00 cf 84 fd 1a 4b bf ca 7c e6 f9 67 aa 42 bf
       -0.000827192104786439 -0.0005696304031522989
000020 41 a4 ae d6 c1 b9 33 bf fc 39 56 f2 d0 19 15 3f
       -0.0003009889830374903 8.049333390245517e-05
000030 a6 37 97 66 d2 06 37 3f cc 9c c3 93 b0 e1 41 3f
       0.0003513587640470113 0.0005457031434418446
000040 db 13 32 a0 2e a3 48 3f 31 ef b3 ff c3 92 47 3f
       0.0007518747010101205 0.0007194001222212474
000050 10 ee 94 51 e8 b5 4a 3f 42 86 a7 6f 72 b0 4b 3f
       0.0008151420944736993 0.0008450087328208471
000060 57 ba c5 7f 43 d5 4a 3f 5d 0d a8 c7 b2 5f 46 3f
       0.0008188800416471614 0.000682794852139439
000070 f9 87 08 be 2d 70 47 3f f6 4f e2 52 31 c8 44 3f
       0.0007152770377312204 0.0006342163885784114
000080 73 75 eb 5f cb dc 40 3f 92 36 4b 1a 22 0d 3a 3f
       0.000514601997419524 0.0003975113161630374
000090 0a d0 24 46 9d c8 f6 3e d5 aa 7c be ed 86 30 bf
       2.1728181658534108e-05 -0.0002521830015093489
0000a0 70 8d 28 6a fc 31 39 bf d3 39 7e a7 98 3d 3f bf
       -0.0003844491240292047 -0.0004766938868606938
0000b0 80 ce 6e 1d e8 86 3c bf 63 92 40 15 23 58 37 bf
       -0.00043528715962824066 -0.0003562055255790562
0000c0 ca 21 dd 5d be 09 2c bf c5 f1 53 dd 38 af f9 be
       -0.00021391342937194933 -2.4494611200674846e-05
0000d0 f6 9d 06 fa 91 75 1d 3f 69 af 43 ff c9 ba 20 3f
       0.0001123781535229336 0.00012763706002460608
0000e0 6e ab e1 07 61 0d 33 3f 44 6b cc b1 75 e3 2f 3f
       0.00029071444431021706 0.0002432900590968128
0000f0 68 07 af 10 43 03 2e 3f 97 c6 01 ed 2e 8c 33 3f
       0.00022897905031809694 0.0002982725682222158
000100 09 39 eb d2 08 19 39 3f 6a fc 8b 9e 6f e3 36 3f
       0.0003829618971566006 0.0003492496021379523
000110 55 4e b2 5e 24 01 35 3f 1c d0 92 2b 2c 8e 37 3f
       0.000320502642986419 0.0003594262921737827
000120 03 31 e9 65 25 02 37 3f df 21 22 54 ea 55 3b 3f
       0.0003510800651482933 0.0004171082583828405
000130 e6 80 d9 3b 8f 92 39 3f 7f 9b 78 a2 f2 67 38 3f
       0.00039020535391466463 0.00037240670869425474
000140 5d fd 91 70 40 97 36 3f 87 61 e3 61 28 62 1b 3f
       0.00034470866427934404 0.00010445949053251
000150 45 b1 87 09 98 95 eb be 30 2c 39 59 85 c7 36 bf
       -1.3153243615137418e-05 -0.00034758573130905506
000160 4d 99 c3 81 4c 81 3e bf 01 b2 28 26 20 81 48 bf
       -0.00046547048419966626 -0.0007478148439239997
000170 de af cc 66 0a f0 51 bf 05 7c 0b 4a d6 6c 56 bf
       -0.0010948278024427364 -0.001368722216447572
000180 ea e5 66 b4 ae 25 5a bf 6b 62 c4 b1 a0 92 5e bf
       -0.0015958982563531962 -0.0018660134583738063
000190 e1 58 b0 d0 69 0c 60 bf 6c ed b3 71 91 0d 63 bf
       -0.001959044142050379 -0.0023258057314003346
0001a0 0d 25 6b ce ac 14 64 bf 15 4c 02 98 0e 6c 64 bf
       -0.002451264870022235 -0.0024929318461288743
0001b0 16 39 24 27 e3 05 65 bf 22 82 6a cf 09 dd 66 bf
       -0.0025662838535317574 -0.0027909461599196087
0001c0 94 b8 3f 4a a5 d3 67 bf 1e f0 77 66 bb 37 69 bf
       -0.002908537704562406 -0.0030783329164005965
0001d0 7d 3e 87 68 75 64 69 bf e3 ea 70 08 06 60 69 bf
       -0.0030996602183462328 -0.0030975454169753654
0001e0 ca 14 10 67 9f 28 68 bf 36 5a 3b 79 b1 5e 66 bf
       -0.0029490578967875424 -0.0027307001381402752
0001f0 e7 10 ec 7f 27 5e 66 bf eb aa 72 b2 4e 6c 64 bf
       -0.0027304431417879307 -0.0024930512477870834
000200 4a 8d 60 ce 5c 7d 64 bf 7e 19 22 46 be 15 64 bf
       -0.0025011837597205587 -0.002451774243186821
000210 d0 5f 8d c5 31 90 62 bf 59 f8 36 74 45 f8 62 bf
       -0.0022660228827753107 -0.0023156506083230996
000220 1d fa 67 36 0d f6 62 bf 30 84 bb 4a ff 29 63 bf
       -0.002314592176161824 -0.002339361779249781
000230 ff f9 2f 97 16 b4 64 bf 4e 06 82 18 5f 1e 65 bf
       -0.002527279016703021 -0.0025779588068537756
000240 b0 16 1f 99 a6 fc 62 bf 02 22 af 1c f3 35 62 bf
       -0.0023177389020670666 -0.0022229908258604167
000250 10 c8 f5 c6 88 f8 61 bf fb 57 f0 37 21 8a 61 bf
       -0.0021937056950998082 -0.0021410607146306027
000260 19 41 14 9b 9e 10 61 bf 1d 39 8f 07 50 f6 61 bf
       -0.00208312013331392 -0.002192646320032256
000270 ea 1d 22 9d 82 ae 64 bf 71 1b 48 8e 08 80 64 bf
       -0.0025246192026917484 -0.0025024573426465847
000280 3f 04 24 5c 1e 69 63 bf 79 cf 98 0e df 85 63 bf
       -0.0023694603888775585 -0.0023831707556158347
000290 7b 13 fd 39 13 65 62 bf 34 33 a7 7d db cd 60 bf
       -0.0022454619901587903 -0.002051285450966134
0002a0 31 0d 09 9e 0e 91 60 bf b2 1e 9e 8e 2e 2e 60 bf
       -0.0020222936148301053 -0.0019751462286342275
0002b0 52 e2 24 2e 55 26 60 bf 30 9a 18 69 58 4d 5f bf
       -0.0019714034725917618 -0.0019105304130647809
0002c0 7a 14 91 8f 2b 88 5e bf e2 c5 f6 7a 4e e5 5b bf
       -0.001863520183421201 -0.0017026201638653472
0002d0 5a 0a 6d d2 2e 45 59 bf 0c 44 83 30 5f f3 58 bf
       -0.0015423733945715474 -0.0015228681168546502
0002e0 a7 fe f7 14 21 96 58 bf e6 11 54 2b d0 44 5a bf
       -0.00150063734679399 -0.0016033203986022203
0002f0 9c 3e 06 f7 77 e9 5b bf 8b f1 d5 a7 33 27 5b bf
       -0.0017036124737365493 -0.0016572956513690475
000300 ec 10 2f 32 9b 5c 55 bf b0 c4 2b 21 f4 0b 50 bf
       -0.001303817328094199 -0.000979412467753609
000310 0b ef 6d 44 4d 0f 48 bf ac 70 bb 73 c1 f5 3c bf
       -0.0007342459947347902 -0.0004418942732920077
000320 bd a7 af fd 7c c4 28 bf eb 76 03 e9 74 18 03 bf
       -0.00018896127480100096 -3.64218404926684e-05
000330 65 ef c9 a8 40 79 32 3f 74 11 f9 2a 05 4c 3c 3f
       0.0002818854198165437 0.00043177724998979335
000340 f2 a0 ff e1 73 29 30 3f 23 91 8f f3 37 a1 05 bf
       0.00024661139650429466 -4.125549316550045e-05
000350 d6 be 8a 25 e2 be 36 bf 73 49 98 e8 f8 7d 40 bf
       -0.00034707089575201683 -0.0005032983182807052
000360 10 62 3f d9 23 3e 48 bf c2 66 dc 11 b0 22 52 bf
       -0.0007398295442682685 -0.0011069030219403174
000370 55 5c 6b 0c 27 44 57 bf 11 68 a8 a5 21 fc 5b bf
       -0.0014200574238907489 -0.0017080620369882597
000380 ad 11 7c 9b 6c 0c 5f bf 7f 8a b8 db ae bb 5f bf
       -0.0018950520151871195 -0.0019368369675098194
000390 03 fa 7c 4e b0 eb 61 bf 9a a7 24 1a 81 92 63 bf
       -0.0021875804413007418 -0.002389194634038594
0003a0 5c 15 c6 f2 15 ca 66 bf 46 e0 92 b1 e8 68 68 bf
       -0.0027819088629167776 -0.0029797119901467132
0003b0 db 1a 0f c6 b2 fc 6a bf 63 df b6 64 d8 b4 6c bf
       -0.0032943240807726654 -0.00350420250262211
0003c0 b3 0c 23 c9 30 ce 6c bf 33 7d df 0f a6 60 6d bf
       -0.003516288075020657 -0.0035861247442735777
0003d0 b4 6c 2e 38 43 c4 6b bf 07 2c 53 9c 1b d5 6a bf
       -0.0033894837265059045 -0.0032754458685295726
0003e0 95 28 5e ba c3 3f 68 bf 9c 02 34 ad 6d a9 66 bf
       -0.0029600928127751593 -0.00276633664327648
0003f0 44 b0 54 af 66 12 64 bf 97 38 8f 77 36 ae 62 bf
       -0.0024501805843524533 -0.0022803367432749455
000400 63 30 55 9a bc d2 5f bf 2a 9e 13 56 3f 1c 5b bf
       -0.0019423333954647008 -0.001654683925432008
000410 2c 75 95 55 ce 11 54 bf c0 41 24 2e 76 42 46 bf
       -0.0012249484046472177 -0.0006793095638233868
000420 51 6f 72 d6 5b 03 2c bf 79 8c 6f 67 43 14 29 3f
       -0.00021372314515565952 0.00019133875659269379
000430 cf 9b 68 2f db dc 40 3f 50 f9 df 86 36 d8 49 3f
       0.0005146093597588832 0.0007887140507134936
000440 e9 4c d7 76 2b 23 50 3f 6c f4 c0 bc bc a2 4d 3f
       0.0009849476294803655 0.0009044095581952744
000450 16 ac 63 04 32 94 50 3f 76 d4 9a 93 ed 53 4c 3f
       0.0010118950318041046 0.0008644971887493819
000460 e8 7d 49 fb c1 81 4a 3f 9d c1 b9 e4 de ef 3b 3f
       0.0008089253593190323 0.0004262847112164405
000470 88 0c e2 48 6f 24 32 3f 82 37 f9 a3 f1 f7 22 bf
       0.00027682988082506537 -0.00014471840585133724
000480 43 d5 a5 50 f0 49 38 bf 3d 62 a3 5d 9e c0 48 bf
       -0.00037061802927181394 -0.0007553838034040705
000490 9a 3a f3 80 5d 6a 53 bf 77 37 75 10 f7 b2 5a bf
       -0.001185027420251983 -0.001629582666129418
0004a0 7f 7d 3f 73 43 03 62 bf d7 92 2e 85 f3 67 66 bf
       -0.002198821772239234 -0.002735114694092249
0004b0 56 c2 e6 96 b9 b5 69 bf b8 93 a4 dd df 61 6d bf
       -0.0031384110254395843 -0.003586709249378175
0004c0 6b 22 89 f2 2c f7 70 bf b2 97 6a 5f b4 1d 73 bf
       -0.004141974998284152 -0.004667000370920537
0004d0 27 ca 27 82 df 07 75 bf 2a d6 d0 f5 24 64 76 bf
       -0.005134461478962161 -0.005466598869181586
0004e0 58 d8 6f 9c 33 ef 77 bf 3e 69 bf 82 81 0a 7a bf
       -0.005843354802882748 -0.006357675458242005
0004f0 da 89 f3 87 43 49 7b bf 67 da 16 b7 8b c0 7c bf
       -0.006661666672899769 -0.007019563448401023
000500 1d b0 37 fa d5 d2 7d bf 07 09 b2 10 62 62 7e bf
       -0.007281146859423185 -0.0074180441544078385
000510 4d e9 75 86 f8 b7 7e bf 1d 0d 49 85 53 12 7f bf
       -0.007499666978555486 -0.0075858366513472915
000520 fa 21 01 bb 5b 1e 7f bf 7a 16 d0 23 44 67 7f bf
       -0.007597311327181883 -0.007666841670475594
000530 14 a6 7c 40 a5 1c 80 bf b9 73 c3 57 98 16 80 bf
       -0.007867136984333313 -0.007855596712426182
000540 ac 74 e2 1d eb 8b 7f bf 57 2e 62 15 57 89 7f bf
       -0.007701795983078668 -0.007699337167774787
000550 0e 0d 10 77 33 54 7f bf 44 8b ce 51 5d 2c 7f bf
       -0.007648659739973652 -0.007610668687365433
000560 a1 58 b5 d8 3b ce 7e bf eb d9 3d 09 be d3 7e bf
       -0.0075208986048293245 -0.0075261519704015
000570 57 ed 6b 38 b1 2a 7e bf 62 e6 ac ac 87 fd 7c bf
       -0.007364933268714089 -0.007077722528998716
000580 61 fb a6 a0 95 32 7c bf e9 6c 5d 8e 46 fd 7a bf
       -0.006884178621873045 -0.006589198694054257
000590 50 ca 17 42 8e 69 7a bf eb 01 74 88 78 1e 79 bf
       -0.006448322006223764 -0.0061325748749827365
0005a0 83 52 fa c2 eb db 77 bf 72 0a c7 e0 7a db 77 bf
       -0.005824967330813838 -0.005824546806652552
0005b0 90 3e b4 93 cf 0e 79 bf 45 56 b1 f5 3c e0 79 bf
       -0.006117640349898715 -0.0063173657645925795
0005c0 39 cf d9 f1 3e a4 7a bf 4e f7 27 0e 5d c2 7b bf
       -0.006504293325281734 -0.006777156350379189
0005d0 f4 fc ef 73 6e a6 7d bf 4b 0c ef 1b 42 04 7f bf
       -0.0072387995305682636 -0.007572420347915341
0005e0 ff a7 d5 1a c5 8f 80 bf 7d 9f 71 64 9b 5f 81 bf
       -0.008086719399859275 -0.008483137133410196
0005f0 a1 7e d4 6a c9 f0 81 bf fa de 82 2e 87 76 82 bf
       -0.008760045597738854 -0.009015136820706971
000600 6f 7f c7 66 9d 26 83 bf a2 7a 60 b4 5a e9 83 bf
       -0.009350995730471571 -0.009722431783356914
000610 5c eb c5 06 bd 7b 84 bf 54 af 86 ea ed dd 84 bf
       -0.010001637238692566 -0.010188921661061258
000620 45 94 7f 9c d5 f9 84 bf 85 17 ef a2 77 73 85 bf
       -0.010242146337939082 -0.010474142703866604
000630 df b6 ce ad 1c 4d 85 bf 48 98 48 09 e9 cb 84 bf
       -0.010400985769446645 -0.010154553027927574
000640 5f 52 b1 4a f6 33 84 bf db 57 b7 72 03 85 83 bf
       -0.009864734796942885 -0.009531046808586232
000650 54 4b f8 1e 36 97 82 bf 26 08 39 0c 9e dd 81 bf
       -0.009077475376249623 -0.00872348284531561
000660 9f 65 b8 f0 dd 00 81 bf 0e 15 71 74 a2 41 80 bf
       -0.008302434834194737 -0.00793768804408981
000670 72 32 8a 29 83 5f 7f bf 55 ce 6c f9 4b 36 7f bf
       -0.0076594470525718095 -0.007620140814470118
000680 05 d6 24 97 4f 95 7f bf 12 7c f8 bb 08 65 80 bf
       -0.007710753345511194 -0.008005207287224567
000690 5b 37 7b 4a 23 54 80 bf 13 d5 4a 00 f4 74 80 bf
       -0.00797298022316866 -0.00803557039157935
0006a0 4b 49 7a 76 01 a3 80 bf ad fc 47 f9 f3 df 80 bf
       -0.008123408725883371 -0.00823965649124
0006b0 19 e7 bb f9 cc 02 81 bf c6 b0 b3 9f 39 53 81 bf
       -0.008306123133923248 -0.008459520517554952
0006c0 ae 27 f8 2a 75 61 81 bf 3e 0f 1f 07 a2 68 81 bf
       -0.008486667035885489 -0.008500352709127076
0006d0 09 23 88 8a 3c 60 81 bf ce 0f 06 5c 6a 9c 81 bf
       -0.008484337785391387 -0.008599120076503566
0006e0 32 65 de 42 d2 79 81 bf 6b b1 7a 6a 2a 7c 81 bf
       -0.008533137002631894 -0.008537608503808433
0006f0 3a b1 85 37 a9 43 81 bf 50 12 bc 00 af 32 81 bf
       -0.008429834372429047 -0.008397452554626345
000700 50 d7 4b b3 8c 3a 81 bf 8e 96 ba e7 9e 47 81 bf
       -0.008412455770194477 -0.008437386938861448
000710 05 e8 50 36 99 e4 80 bf dc ab c1 16 15 9a 80 bf
       -0.008248517007917408 -0.008106388813947811
000720 46 21 63 cf 6a 49 80 bf 08 b9 10 34 e6 65 80 bf
       -0.007952532247501264 -0.008006857360751699
000730 0d 9d 62 c3 af 0d 80 bf a1 49 f7 7e 3f 04 80 bf
       -0.007838605070289018 -0.00782060247630484
000740 90 56 6f 6c b4 9e 7f bf 9e d2 9a 69 49 eb 7e bf
       -0.0077197120471815955 -0.007548605697299008
000750 29 25 68 0e 44 ea 7e bf d4 fc de 1f 29 8c 7e bf
       -0.007547632069426138 -0.007457886354983862
000760 18 f7 da d8 53 3f 7e bf 0e 64 8c 5e 97 7b 7d bf
       -0.0073846125866887866 -0.007197943960613363
000770 72 30 3d 9a 1f 9b 7d bf 7d 90 68 14 53 41 7d bf
       -0.007228015372515372 -0.0071423764516432816
000780 26 e2 28 d4 6a 3b 7d bf ec 26 fc d9 54 7e 7c bf
       -0.007136742877769586 -0.006956416560351047
000790 6b 20 96 0e e1 2e 7c bf da 49 b5 f6 78 b6 7b bf
       -0.006880644921132366 -0.006765816225497956
0007a0 17 d7 80 de 17 19 7b bf 32 7c ea 01 a2 dc 79 bf
       -0.006615727652435919 -0.006313927499518578
0007b0 fa d3 b8 23 02 e9 79 bf b3 54 74 e3 5a d5 79 bf
       -0.0063257297111265435 -0.006306986840418793
0007c0 ef 9d 6d 84 76 ed 78 bf bf b7 dc f7 3e 2e 77 bf
       -0.006085837324327311 -0.0056593379684226055
0007d0 cc 06 b6 79 72 df 75 bf 36 91 a5 31 8a fc 73 bf
       -0.0053400489517813725 -0.004879512615250816
0007e0 b8 3e b4 26 ad 80 72 bf 7e c1 ba 7a ca d0 71 bf
       -0.004517246600940154 -0.004349509177402287
0007f0 3a a5 1a 01 a0 b3 70 bf 80 7c 32 a1 7f 18 6f bf
       -0.0040775537651510044 -0.003795861508094911

time_axis f8 [40]
000000 33 33 33 33 33 33 d3 bf 8f c2 f5 28 5c 8f d2 bf
       -0.3 -0.29
000010 ec 51 b8 1e 85 eb d1 bf 48 e1 7a 14 ae 47 d1 bf
       -0.28 -0.27
000020 a4 70 3d 0a d7 a3 d0 bf 00 00 00 00 00 00 d0 bf
       -0.26 -0.25
000030 b8 1e 85 eb 51 b8 ce bf 71 3d 0a d7 a3 70 cd bf
       -0.24 -0.23
000040 29 5c 8f c2 f5 28 cc bf e1 7a 14 ae 47 e1 ca bf
       -0.22 -0.21
000050 9a 99 99 99 99 99 c9 bf 52 b8 1e 85 eb 51 c8 bf
       -0.2 -0.19
000060 0a d7 a3 70 3d 0a c7 bf c3 f5 28 5c 8f c2 c5 bf
       -0.18 -0.17
000070 7b 14 ae 47 e1 7a c4 bf 33 33 33 33 33 33 c3 bf
       -0.16 -0.15
000080 ec 51 b8 1e 85 eb c1 bf a4 70 3d 0a d7 a3 c0 bf
       -0.14 -0.13
000090 b8 1e 85 eb 51 b8 be bf 29 5c 8f c2 f5 28 bc bf
       -0.12 -0.11
0000a0 9a 99 99 99 99 99 b9 bf 0a d7 a3 70 3d 0a b7 bf
       -0.1 -0.09
0000b0 7b 14 ae 47 e1 7a b4 bf ec 51 b8 1e 85 eb b1 bf
       -0.08 -0.07
0000c0 b8 1e 85 eb 51 b8 ae bf 9a 99 99 99 99 99 a9 bf
       -0.06 -0.05
0000d0 7b 14 ae 47 e1 7a a4 bf b8 1e 85 eb 51 b8 9e bf
       -0.04 -0.03
0000e0 7b 14 ae 47 e1 7a 94 bf 7b 14 ae 47 e1 7a 84 bf
       -0.02 -0.01
0000f0 00 00 00 00 00 00 00 00 7b 14 ae 47 e1 7a 84 3f
       0.0 0.01
000100 7b 14 ae 47 e1 7a 94 3f b8 1e 85 eb 51 b8 9e 3f
       0.02 0.03
000110 7b 14 ae 47 e1 7a a4 3f 9a 99 99 99 99 99 a9 3f
       0.04 0.05
000120 b8 1e 85 eb 51 b8 ae 3f ec 51 b8 1e 85 eb b1 3f
       0.06 0.07
000130 7b 14 ae 47 e1 7a b4 3f 0a d7 a3 70 3d 0a b7 3f
       0.08 0.09

dx f8 []
000000 9a 99 99 99 99 99 a9 3f
       0.05

dt f8 []
000000 7b 14 ae 47 e1 7a 84 3f
       0.01
