MB_FB_model/STkernels-old parameters.npz (npz, 98286 bytes, 4 tensors)

ST_kernel f8 [30, 400]
00000000: 3bac 99e6 4e9f 84bf 7018 0466 8b65 81bf
00000010: 6965 5fa0 1ca7 79bf 1442 a858 2a2a 81bf
00000020: a003 d8c9 53f1 82bf dc3c 0408 ed8d 82bf
00000030: b206 79a8 e228 81bf 4627 e4d5 7919 80bf
00000040: 5baf 0842 7eb2 7cbf 0cb8 4e24 3be0 78bf
00000050: 8bd6 f4d4 b10d 74bf 4be1 bec0 046a 74bf
00000060: 22df fa7b 3199 71bf 070e 2485 11a4 72bf
00000070: ede9 5d07 27b7 6ebf e5a9 4f67 1cb7 6cbf
00000080: 54bc 5c44 09ec 71bf 2c16 baa7 5980 70bf
00000090: 011b 6749 1caf 7bbf e267 1b21 4bc2 7fbf
000000a0: a01d aa68 6543 80bf b203 8a2b a3e1 81bf
000000b0: 1747 f69f e3a9 86bf 246c b3d4 fc3e 87bf
000000c0: 1625 c9c0 7c3f 86bf 0f3c d92d 94aa 89bf
000000d0: 1ac5 5b57 19f2 85bf 45eb 56d0 96d8 89bf
000000e0: cbfa 8e6a 88f2 85bf 0279 da60 f361 85bf
000000f0: 83f9 e3f1 2a28 88bf cec8 b52a c77d 88bf
00000100: ff7c 1227 43d4 89bf fd4c f45a e5ad 89bf
00000110: a4bc e508 c4fd 87bf d8ba 02da bd16 8abf
00000120: 9ac8 05e8 1b82 88bf 63cd 78b8 b261 89bf
00000130: bdb0 28d8 417e 83bf 9970 a73f ebf0 81bf
00000140: 7c13 6983 5649 82bf 0a3d 3566 5b06 81bf
00000150: 4c74 b0c1 9851 80bf bb3e c527 4832 81bf
00000160: ce6a 4a24 5e0b 80bf 763f 9fc0 3a4d 7abf
00000170: e05d 6bfd a1cd 70bf 9b6c 86b6 1a7f 78bf
00000180: 00e0 2369 0e41 77bf 981e 3e8c 1f7e 75bf
00000190: e272 f3f5 538d 7cbf 392a 1f3a 3da2 79bf
000001a0: e3f3 04ed a8bd 79bf a5b4 3969 a6cc 7abf
000001b0: ab16 2638 4467 75bf 9f31 84f0 9688 71bf
000001c0: f3b1 ed28 ee7c 6bbf 0b63 846a 18c8 6abf
000001d0: cbde 297b 530d 6cbf cd6a 5711 e9ed 72bf
000001e0: 8121 b384 9834 70bf 85a7 e363 c9c2 71bf
000001f0: 8536 98e7 4ebe 70bf c779 c7ca 34c0 6fbf
00000200: cd84 fe1a 61b3 70bf 6e50 4883 dbe0 76bf
00000210: e092 5526 72ac 77bf 5603 ab5a 503c 76bf
00000220: aec0 b4ae 0179 77bf a6e7 68f9 0939 79bf
00000230: ba01 d902 f305 7dbf 6853 1282 b990 7cbf
00000240: a5f6 6014 0676 7cbf 94f9 6e12 cd9c 7dbf
00000250: 4478 9a35 fa42 80bf e295 a134 b322 80bf
00000260: d01e ddb0 45f9 7fbf 85f4 917f ec2a 7fbf
00000270: dde7 dc19 99aa 7cbf ea4c 7cbf 039d 81bf
00000280: fd15 4acb de57 7fbf 00bf 7af2 0fb5 82bf
00000290: 3f08 60ab aa20 83bf 01a0 4379 5704 85bf
000002a0: 0fda 68c3 d437 86bf 76a6 e331 e9d5 88bf
000002b0: 1672 6bb9 4cdc 88bf 37af 3224 9aae 8fbf
000002c0: be93 263d aa5b 91bf 9730 08e7 7f97 90bf
000002d0: f2c1 62c4 131d 8fbf c7da e157 a3dd 8ebf
000002e0: fc77 26a3 f870 91bf fc8d edc4 e16a 90bf
000002f0: 4b4d 2034 f3e2 91bf 0971 5c74 a251 91bf
00000300: 185a 4aaf f514 90bf ffeb 63af 648d 8ebf
00000310: d713 d5f9 1446 89bf 1d86 1d59 839c 86bf
00000320: c3dc 60ab 5c2d 84bf 168e 4edf 8135 83bf
00000330: 7a2b bd6a 2925 83bf 9428 33c1 4c72 82bf
00000340: 8437 4dca 7eda 82bf 9150 f00a a580 83bf
00000350: c17c 3b6a 358c 81bf 9259 d379 93ad 76bf
00000360: 0388 2de2 e882 6fbf 1ebb f1fc 171d 70bf
00000370: b533 9740 cd5a 67bf 4b0d 9973 1124 6ebf
00000380: c4e9 4b74 c04a 6dbf dd2a a518 6f75 66bf
00000390: 9994 4b3b ad4d 65bf 4a2d 28a3 44ba 62bf
000003a0: 320f 88a5 8c96 62bf e1bb 03e2 7659 65bf
000003b0: f983 6236 404d 443f 3068 b9b4 3af7 653f
000003c0: 2fa0 cc41 cfa4 6d3f 433d 142c e356 723f
000003d0: b00c c8e8 f3c7 773f 29ac 5314 513e 7b3f
000003e0: 32c0 7e53 9317 7f3f 76c4 e01d 08ce 7d3f
000003f0: 7a34 d5ea b6b4 7f3f aea9 01e8 edd8 813f
00000400: 86f4 452c 2b71 833f 3a71 5c68 0916 7b3f
00000410: c041 96e1 b161 753f 4d51 de1b 1811 753f
00000420: 0a27 a431 71a5 713f ba3d a9b1 fd99 713f
00000430: a741 315c 99ce 6e3f cb6d c591 51a2 6c3f
00000440: 1fb8 4802 6bcc 5d3f e62c 0ae6 2cc8 5a3f
00000450: b22c e52f 80cd 513f 08fc 6148 2325 503f
00000460: f001 c5a0 050f 573f 838c 733a dbc3 0b3f
00000470: df1f e890 4f7a 523f f0cf e14f 1222 38bf
00000480: 5efe d950 1d66 553f 0dde 9912 9a13 573f
00000490: 152d 3e1b b022 6c3f fbae 18be 0043 763f
000004a0: 0f14 ee5f a214 773f 56d9 2d8a 882e 743f
000004b0: e6dd 3016 91c3 763f e00e e5d6 2efd 663f
000004c0: 6e76 1113 3c94 603f 099f 50c8 f1a4 653f
000004d0: 7c3c 68aa 84d8 5d3f ae43 6533 c1b8 383f
000004e0: 4477 7b3c e959 45bf bf7a f2e1 138e 643f
000004f0: ad50 fcdd 3d57 533f 38ed 9fe2 dc01 483f
00000500: 960d 2cc0 73bf 513f 4522 6595 ac96 663f
00000510: 0f90 3f9b d6ae 713f 5e49 6312 a416 6f3f
00000520: e626 3200 6e6c 743f 0725 534c 02e2 763f
00000530: 0107 2019 3ddc 793f 3373 1c6f 8acb 7e3f
00000540: f600 a121 43cf 7c3f b7fa 4274 a197 7d3f
00000550: 178e 30ea c239 793f 4e8c 509a b0b2 763f
00000560: adb6 9941 5591 783f f3a3 e197 b17e 723f
00000570: d220 e4ca 9624 783f db15 abb5 65b6 7c3f
00000580: e690 178b e98a 7f3f 05db 8e0b e3a7 813f
00000590: 7bcf 5119 473c 803f 94d2 52ff 3d96 853f
000005a0: 42e2 39c7 1dfc 853f fd29 24ef 9b20 843f
000005b0: 4af3 cc20 3cb0 843f 4dc3 9238 0c22 833f
000005c0: 8782 5169 1a9d 803f bc9c d829 4782 833f
000005d0: 0abf 6765 d771 813f ccea 35eb c595 843f
000005e0: d47c ffa2 daa6 833f 61e2 e742 a3b9 823f
000005f0: 35be f8c5 7879 853f c66f 4c40 baf9 843f
00000600: 9012 03f5 2ecd 883f 558d fd7b 20a9 863f
00000610: eea7 9228 23b0 863f bef8 5e47 34bf 8a3f
00000620: 9fe6 59ec 26ae 863f 2c7c fade 315b 863f
00000630: cbfb 1661 4830 853f 32cf e4f4 ecd3 823f
00000640: 32cf e4f4 ecd3 823f cbfb 1661 4830 853f
00000650: 2c7c fade 315b 863f 9fe6 59ec 26ae 863f
00000660: bef8 5e47 34bf 8a3f eea7 9228 23b0 863f
00000670: 558d fd7b 20a9 863f 9012 03f5 2ecd 883f
00000680: c66f 4c40 baf9 843f 35be f8c5 7879 853f
00000690: 61e2 e742 a3b9 823f d47c ffa2 daa6 833f
000006a0: ccea 35eb c595 843f 0abf 6765 d771 813f
000006b0: bc9c d829 4782 833f 8782 5169 1a9d 803f
000006c0: 4dc3 9238 0c22 833f 4af3 cc20 3cb0 843f
000006d0: fd29 24ef 9b20 843f 42e2 39c7 1dfc 853f
000006e0: 94d2 52ff 3d96 853f 7bcf 5119 473c 803f
000006f0: 05db 8e0b e3a7 813f e690 178b e98a 7f3f
00000700: db15 abb5 65b6 7c3f d220 e4ca 9624 783f
00000710: f3a3 e197 b17e 723f adb6 9941 5591 783f
00000720: 4e8c 509a b0b2 763f 178e 30ea c239 793f
00000730: b7fa 4274 a197 7d3f f600 a121 43cf 7c3f
00000740: 3373 1c6f 8acb 7e3f 0107 2019 3ddc 793f
00000750: 0725 534c 02e2 763f e626 3200 6e6c 743f
00000760: 5e49 6312 a416 6f3f 0f90 3f9b d6ae 713f
00000770: 4522 6595 ac96 663f 960d 2cc0 73bf 513f
00000780: 38ed 9fe2 dc01 483f ad50 fcdd 3d57 533f
00000790: bf7a f2e1 138e 643f 4477 7b3c e959 45bf
000007a0: ae43 6533 c1b8 383f 7c3c 68aa 84d8 5d3f
000007b0: 099f 50c8 f1a4 653f 6e76 1113 3c94 603f
000007c0: e00e e5d6 2efd 663f e6dd 3016 91c3 763f
000007d0: 56d9 2d8a 882e 743f 0f14 ee5f a214 773f
000007e0: fbae 18be 0043 763f 152d 3e1b b022 6c3f
000007f0: 0dde 9912 9a13 573f 5efe d950 1d66 553f
-0.010069481289255324 -0.008494462061673341 -0.00626288587769728 -0.00838120539722901 -0.009249357793125246 -0.009059764678140451 -0.008378763929730002 -0.007861091461126467
-0.007006161875818008 -0.006073218367346211 -0.00489587274141957 -0.004983919683518255 -0.004296487138780754 -0.004550999105279902 -0.003749443271712885 -0.0035052828557031617
-0.0043754922860862085 -0.004028654304084205 -0.006758795256650131 -0.007753652070926239 -0.007941047913177013 -0.008731150404175245 -0.01106622535624839 -0.011350608101954825
-0.010863279946664178 -0.012532384537875555 -0.01071567342612183 -0.012620142205255322 -0.01071650099936274 -0.010440732377273058 -0.011795363909638428 -0.011958652487667722
-0.012611889486207504 -0.012538711393551777 -0.011714488526847262 -0.012738688674600082 -0.011966913240687927 -0.0123933756395675 -0.009518160256526515 -0.008760297660892301
-0.008928943524674209 -0.00831290631927441 -0.007968133364608353 -0.008396686280917156 -0.007834182245735202 -0.006421308042220511 -0.004102356694338977 -0.005980591151821059
-0.005677276889620941 -0.005247233613665657 -0.006970718356765744 -0.006258238952748623 -0.006284389368656359 -0.006542825739967705 -0.005225435716402475 -0.0042806526255500235
-0.0033554698524567105 -0.0032692410351383753 -0.0034243231287368384 -0.004621420307979474 -0.003956409239613713 -0.004336153679313064 -0.004087742062905191 -0.0038758307548356383
-0.004077319448613182 -0.005585534545861843 -0.005779691598352982 -0.005428613551601588 -0.005730635234883303 -0.006157912218037886 -0.007085751783563793 -0.006973957673058397
-0.006948493717627767 -0.007229615271113227 -0.007940249214979052 -0.0078786850392118 -0.007806083898522068 -0.0076092947211893235 -0.006998632479559644 -0.008600262910056295
-0.007652159013223689 -0.009134411418329602 -0.009339650492624084 -0.010262187374294742 -0.010848676885058443 -0.012126752696036674 -0.012138938339767907 -0.01546974585502135
-0.016951236708013566 -0.01620292518241281 -0.015192179136961113 -0.015071178550198806 -0.01703251357832157 -0.016032722134140073 -0.01746730809834433 -0.016912973739736468
-0.015704954933051324 -0.014918123819816385 -0.012340701936986704 -0.011040712506374334 -0.009852146129658462 -0.00937940085152093 -0.009348224229730685 -0.009007072111121318
-0.00920580916286063 -0.009522714039157417 -0.00856820803113434 -0.005536628797207748 -0.003846602297401526 -0.003933995917676096 -0.0028509148439525797 -0.0036793080187479724
-0.0035756834862443482 -0.002741543755438654 -0.0026005156927220827 -0.0022860851834189165 -0.002269053173451407 -0.002606136506180232 0.0006195605790432205 0.002681364688936781
0.003618626402744261 0.00447739352354343 0.005805924196923204 0.0066512267269258985 0.007590842716965128 0.007276565271284166 0.007740702172054909 0.008714541094566677
0.009493195808995002 0.006612812756227543 0.005220122192796273 0.005143255400885072 0.004308168567385593 0.004297247879164906 0.0037606234850857292 0.0034953683045111142
0.0018187565812115625 0.0016346395933933221 0.0010865928484971418 0.000985416847043787 0.0014073901139256516 5.295765668635827e-05 0.001127793980801421 -0.0003682417590262768
0.0013060842788092035 0.001408482038099626 0.0034345092371431776 0.005434992695466208 0.00563491275432161 0.004927190168805792 0.005557600731712386 0.0028062739212674076
0.0020238087968625284 0.002642128211409193 0.0018216414988534704 0.0003772231751968902 -0.0006515873764916043 0.0025091541607048236 0.0011804680033878176 0.0007326439420007108
0.001083243406072442 0.0027573939106882183 0.004317129427338542 0.0037949757125740743 0.004986219110955514 0.005586632706760192 0.0063135515829360065 0.007518330343171442
0.007033598167311297 0.007224684410344898 0.006158601175261256 0.005541505674986414 0.005997975380166371 0.004515355800415388 0.0058942690213898575 0.007009885123527816
0.007700836447359393 0.00862100008985812 0.007927470646087667 0.01054047046123089 0.01073477997054895 0.009827821956169375 0.010101766348833547 0.009342284656982303
0.00811215051561588 0.009525829281371016 0.00851791647161761 0.010051294556196487 0.009595592593483117 0.009143138388922613 0.010485595265975348 0.010241942488896327
0.012110106327221787 0.011064771446121094 0.011078142810521965 0.013060005596227216 0.01107435616289659 0.010916127793562401 0.010345998251862462 0.009193278525891555
0.009193278525891555 0.010345998251862462 0.010916127793562401 0.01107435616289659 0.013060005596227216 0.011078142810521965 0.011064771446121094 0.012110106327221787
0.010241942488896327 0.010485595265975348 0.009143138388922613 0.009595592593483117 0.010051294556196487 0.00851791647161761 0.009525829281371016 0.00811215051561588
0.009342284656982303 0.010101766348833547 0.009827821956169375 0.01073477997054895 0.01054047046123089 0.007927470646087667 0.00862100008985812 0.007700836447359393
0.007009885123527816 0.0058942690213898575 0.004515355800415388 0.005997975380166371 0.005541505674986414 0.006158601175261256 0.007224684410344898 0.007033598167311297
0.007518330343171442 0.0063135515829360065 0.005586632706760192 0.004986219110955514 0.0037949757125740743 0.004317129427338542 0.0027573939106882183 0.001083243406072442
0.0007326439420007108 0.0011804680033878176 0.0025091541607048236 -0.0006515873764916043 0.0003772231751968902 0.0018216414988534704 0.002642128211409193 0.0020238087968625284
0.0028062739212674076 0.005557600731712386 0.004927190168805792 0.00563491275432161 0.005434992695466208 0.0034345092371431776 0.001408482038099626 0.0013060842788092035

time_axis f8 [40]
00000000: 3333 3333 3333 d3bf 8fc2 f528 5c8f d2bf
00000010: ec51 b81e 85eb d1bf 48e1 7a14 ae47 d1bf
00000020: a470 3d0a d7a3 d0bf 0000 0000 0000 d0bf
00000030: b81e 85eb 51b8 cebf 713d 0ad7 a370 cdbf
00000040: 295c 8fc2 f528 ccbf e17a 14ae 47e1 cabf
00000050: 9a99 9999 9999 c9bf 52b8 1e85 eb51 c8bf
00000060: 0ad7 a370 3d0a c7bf c3f5 285c 8fc2 c5bf
00000070: 7b14 ae47 e17a c4bf 3333 3333 3333 c3bf
00000080: ec51 b81e 85eb c1bf a470 3d0a d7a3 c0bf
00000090: b81e 85eb 51b8 bebf 295c 8fc2 f528 bcbf
000000a0: 9a99 9999 9999 b9bf 0ad7 a370 3d0a b7bf
000000b0: 7b14 ae47 e17a b4bf ec51 b81e 85eb b1bf
000000c0: b81e 85eb 51b8 aebf 9a99 9999 9999 a9bf
000000d0: 7b14 ae47 e17a a4bf b81e 85eb 51b8 9ebf
000000e0: 7b14 ae47 e17a 94bf 7b14 ae47 e17a 84bf
000000f0: 0000 0000 0000 0000 7b14 ae47 e17a 843f
00000100: 7b14 ae47 e17a 943f b81e 85eb 51b8 9e3f
00000110: 7b14 ae47 e17a a43f 9a99 9999 9999 a93f
00000120: b81e 85eb 51b8 ae3f ec51 b81e 85eb b13f
00000130: 7b14 ae47 e17a b43f 0ad7 a370 3d0a b73f
-0.3 -0.29 -0.28 -0.27 -0.26 -0.25 -0.24 -0.23
-0.22 -0.21 -0.2 -0.19 -0.18 -0.17 -0.16 -0.15
-0.14 -0.13 -0.12 -0.11 -0.1 -0.09 -0.08 -0.07
-0.06 -0.05 -0.04 -0.03 -0.02 -0.01 0.0 0.01
0.02 0.03 0.04 0.05 0.06 0.07 0.08 0.09

dx f8 []
00000000: 9a99 9999 9999 a93f
0.05

dt f8 []
00000000: 7b14 ae47 e17a 843f
0.01
