MB_FB_model/STkernels-good parameters.npz (npz, 98286 bytes, 4 tensors)

ST_kernel f8 [30, 400]
0	0xbf54f9dba33b36bb	-0.001280273904672154
1	0xbf5279fc881b06dd	-0.001127716649009284
2	0xbf37924335ed0b15	-0.00035967007527319797
3	0xbf37a375a9101316	-0.00036069510048290906
4	0xbf37d821df6e3a1a	-0.0003638346383291483
5	0xbf410befa5aca93b	-0.0005202217247178073
6	0xbf4755fd81e364ec	-0.0007121551350578715
7	0xbf2ac643ec3ab5b6	-0.00020427302489649046
8	0xbf3d6a2f92b0e880	-0.0004488340516136738
9	0xbf4bdbf150cc6078	-0.0008501938151281993
10	0xbf393ae1ff41a696	-0.00038497941500868196
11	0xbf4375e0a1477683	-0.000593886072745867
12	0xbf4fcd47e1e1a549	-0.0009705162990602335
13	0xbf5733ec511746fb	-0.0014161880284188622
14	0xbf584c037007626d	-0.0014829667635380087
15	0xbf5c20edd05083ec	-0.0017168352508252173
16	0xbf5610bc48af24dc	-0.0013467634878330725
17	0xbf5066b015ca2929	-0.0010010451871119241
18	0xbf2b91d1496404fd	-0.00021033935326645456
19	0x3f30282ddb014385	0.00024653548735380947
20	0x3f201b9eb5b9b27c	0.00012289345146445144
21	0x3f3476c44c03f4df	0.000312254833275306
22	0x3f396ecc5bf8093c	0.00038807381858431736
23	0x3f03263a5386a0fb	3.652444360408184e-05
24	0x3f41f9fac9c5c41f	0.0005485987235670542
25	0x3f4acd6728f610c6	0.0008179429732284797
26	0x3f56989195c05a9b	0.0013791486480891127
27	0x3f55f7d86ac535d9	0.001340829224392484
28	0x3f5337977ecc0232	0.0011729220815938188
29	0x3f4b7d46d41d02a0	0.000838908752690843
30	0x3f3b5676ed962f0d	0.0004171409942379391
31	0x3f007b024a5e02c1	3.14340662006577e-05
32	0x3f4a0e6ec604e788	0.0007951775442400647
33	0x3f461c503b7d76a8	0.0006747619399722531
34	0x3f4e3c27d7aafb3d	0.0009226984542108696
35	0x3f5597313acbd958	0.0013177853354001314
36	0x3f526b9288da3e44	0.0011242800714263016
37	0x3f4c9100283ccb20	0.0008717776076764029
38	0x3f4178f372e61277	0.0005332173075634623
39	0x3f26f0483571e424	0.00017500764326763938
40	0x3f203e19392301c0	0.00012392099285386642
41	0xbf35bd163c13e264	-0.0003317050250895347
42	0xbf45d3e60caa2c00	-0.0006661294258533124
43	0xbf332c1065c7d346	-0.00029254341441680256
44	0xbf33bdc4d78f3d19	-0.0003012281009064518
45	0x3f383dabb39937be	0.00036988679821525403
46	0x3f3b85d63171827b	0.0004199645931688767
47	0x3f4288c863da4dbe	0.0005656221835174597
48	0x3efcb46f64f4c1fb	2.7375054114377514e-05
49	0xbf34f8dd6955ecd0	-0.00032000928452875516
50	0xbf4df11837571ac0	-0.0009137504809409655
51	0xbf5db12785359878	-0.001812256425944207
52	0xbf5d1d1da8a2bf76	-0.0017769612918918354
53	0xbf61e2d44e0df00a	-0.002183355958946369
54	0xbf5d6fb87c702cb1	-0.0017966558095874714
55	0xbf5dc8b72d396163	-0.0018178738436259382
56	0xbf59d0e5117119c1	-0.0015756833070256079
57	0xbf5e9101d7f56834	-0.0018656270984451885
58	0xbf67b0d51e66a8d8	-0.0028919374919570244
59	0xbf66c0df3c41c557	-0.0027775154176700556
60	0xbf6676e8f34cefa9	-0.002742247563586948
61	0xbf6717c24ba4ec07	-0.0028189463456818084
62	0xbf6778c79370da89	-0.002865209385642335
63	0xbf64783589c48000	-0.0024987264315683433
64	0xbf6362bc9d6da135	-0.002366417301733171
65	0xbf5ba46c834f599c	-0.0016871509262635703
66	0xbf6223f9a084c3ce	-0.0022144198921058905
67	0xbf60d889a428a8ca	-0.002056378202969976
68	0xbf6051b43a0ca44b	-0.001992084508306157
69	0xbf608a70cc5b1c02	-0.0020191386309735835
70	0xbf61a3c974054828	-0.0021532950051233075
71	0xbf62b897b07a6f47	-0.002285286205575252
72	0xbf6495cf1018cf28	-0.0025128406712385983
73	0xbf68126ed0a16901	-0.0029384769778008084
74	0xbf6843ddcf3ef65f	-0.0029620487420903142
75	0xbf6bc943b078d79f	-0.0033918687875269106
76	0xbf644e139a2544d2	-0.0024786360601543956
77	0xbf62b611026d7093	-0.0022840816704228855
78	0xbf62782a5fed3dbd	-0.0022545650130394155
79	0xbf609b58f30c946a	-0.0020272004407098547
80	0xbf64499305145db8	-0.002476489208344392
81	0xbf61e74445723dd5	-0.0021854718612030846
82	0xbf61edd3b0e38179	-0.002188600024155271
83	0xbf673b0dee05607b	-0.0028357765260516566
84	0xbf6f55193f5d1d23	-0.00382475787310778
85	0xbf70c923520d6b9f	-0.004098070116778012
86	0xbf6b8f39cafc42a1	-0.003364193798809659
87	0xbf686fa66ec4b5c8	-0.0029829264296014936
88	0xbf675485d2af8aa8	-0.0028479207735342023
89	0xbf6b7ed20c89a910	-0.0033563711661389675
90	0xbf679b2729a03afd	-0.002881599893050589
91	0xbf6ccf34e25a773e	-0.00351677254623342
92	0xbf6e42bdee60e22b	-0.003693934401806117
93	0xbf6de0dc54f71345	-0.003647260986073072
94	0xbf701cea8d68e52b	-0.003933826656571863
95	0xbf6f172672f94110	-0.0037952185591977397
96	0xbf6ea758cc1edcf7	-0.003741906578365591
97	0xbf6bf12c3e72f769	-0.0034108986033904343
98	0xbf68e4611d42b233	-0.0030385872615481756
99	0xbf699e54c9eca470	-0.0031272560148818893
100	0xbf6253ce4ae959c5	-0.002237227359084689
101	0xbf66ac80a89c58f4	-0.0027678025115945807
102	0xbf64a29da6ccdfc3	-0.0025189475185491707
103	0xbf60df760cab9f63	-0.0020596795705962053
104	0xbf575996f4ae43ca	-0.001425168435819512
105	0xbf4fa9dcbb6f6c43	-0.0009662940782350155
106	0xbf4e4934af9a0869	-0.0009242541556917619
107	0x3ed01e2daab43ec1	3.8428030777607e-06
108	0x3f30290b3a281db1	0.0002465870294660845
109	0x3f35eeb4fd0a288c	0.00033466261542315005
110	0x3f4ab3689fe6d913	0.0008148442137130583
111	0x3f50cdc5fb64c6be	0.001025622693827818
112	0x3f4c9d03c2c09a7a	0.0008732097971958085
113	0x3f3ba69e76f1471e	0.0004219185711394779
114	0x3f3cff8e3051ea4d	0.00044247838406589053
115	0x3f42cede2acad1d3	0.0005739769745419183
116	0x3f2869a405aa34c5	0.0001862538072895712
117	0xbf31209b64206e4e	-0.00026134294250976665
118	0xbf368afa45dd99c1	-0.0003439770715573353
119	0xbf291a4cbfe23b7d	-0.00019151865848640237
120	0x3f3d0e10de7f0b02	0.0004433432754888251
121	0xbf3568d283bb549d	-0.0003266824676136456
122	0xbf2249c0be75fa65	-0.0001395271094501604
123	0xbf25298ca403b4ae	-0.0001614555531043496
124	0x3f17987b1d5d22cf	9.001017982969015e-05
125	0x3f33d7e51f152f7f	0.0003027853373012076
126	0xbf21dc53da61243a	-0.00013626597973573508
127	0xbf30d89af026153e	-0.0002570513026046334
128	0xbf3f2242aa070cd3	-0.0004750645403214907
129	0xbf436dec73e68e72	-0.0005929379038218231
130	0xbf3b3eba74bdb471	-0.00041572620533864626
131	0xbf00f57268f9fe17	-3.234630014236852e-05
132	0x3f3d82840cdf3e0f	0.0004502842319853159
133	0x3f4ba83a8d5085aa	0.0008440290354238451
134	0x3f4791babfa5fdae	0.0007192766054657151
135	0x3f519672f77df684	0.001073467514259547
136	0x3f53684d15eb04bd	0.0011845352925521767
137	0x3f5d01633b15dd13	0.0017703503657154381
138	0x3f5c1584101ae52f	0.0017141141583308474
139	0x3f60349353571ba6	0.0019781949474437397
140	0x3f622989e0b3cc51	0.002217072765796448
141	0x3f5fadefc700124b	0.0019335595679887015
142	0x3f6097e368abb17d	0.0020255509929169566
143	0x3f5b2cacf2dd4a66	0.0016586007072489028
144	0x3f5e23bd472a0dfd	0.0018395756166292847
145	0x3f4dc1d0ab3b454c	0.0009081143275243924
146	0x3f4e8195a7f9edc4	0.0009309750311809408
147	0x3f511224f6908c1c	0.0010419236152834415
148	0x3f5617c01dba5418	0.0013484359869029346
149	0x3f453031fa3e8f8f	0.0006466144591183875
150	0x3f49ff5007736734	0.0007933750884163483
151	0x3f4368d6da6bebe2	0.0005923317993102829
152	0x3f4d1260c4607d54	0.0008872005935280183
153	0x3f549a6ae3d073ac	0.001257519135158018
154	0x3f5bb7801f67399a	0.0016916991422593953
155	0x3f6394bef418b9e6	0.002390263515528834
156	0x3f60cff1e47c2f80	0.002052280851676913
157	0x3f6746277a9c57c0	0.0028410693238453966
158	0x3f66f8d55b5a0af3	0.0028041998983224735
159	0x3f64ca70367bddd1	0.002537936368635953
160	0x3f659eaf17b6e651	0.0026391429689425557
161	0x3f66213b80a01697	0.002701393333157064
162	0x3f64ac4c7c608442	0.002523564707204191
163	0x3f61a13b14f54a41	0.0021520761435252227
164	0x3f62caf5066938de	0.0022940431256649315
165	0x3f62cc8f5fbe0bb7	0.0022948074601471763
166	0x3f61c62673938cd3	0.002169680691268641
167	0x3f5c654ffc31484b	0.0017331391434436568
168	0x3f5d416791a33989	0.0017856131949432771
169	0x3f5d73629ea070d4	0.0017975295145396435
170	0x3f561e97168217a3	0.0013500667064660708
171	0x3f47da677192f8f1	0.0007279400916997675
172	0x3f54891c508f1f24	0.0012533928404411887
173	0x3f58b411090018a8	0.0015077749594652277
174	0x3f591bf58872a0ea	0.0015325448783106107
175	0x3f60184b69fbfd0f	0.001964709561320561
176	0x3f61a34d4a5acf2e	0.002153063733965419
177	0x3f65561df3f4081a	0.0026045403498082932
178	0x3f62a90bc2033eb8	0.002277873005460975
179	0x3f636898d5cad08d	0.002369211679559119
180	0x3f5e5c061171857c	0.0018529948481716676
181	0x3f59147514dbcb86	0.0015307563184563124
182	0x3f525d8683f6c5ec	0.0011209310176635246
183	0x3f54c5a823d7a0a2	0.0012678281776690521
184	0x3f4e7ecb64534c0f	0.0009306424259655238
185	0x3f3ccc9383968ac3	0.0004394397870674355
186	0x3f31c2fdc4fddae6	0.00027102180046460614
187	0x3f4dafb82755a2c2	0.0009059571445223168
188	0x3f456aa89f6a3714	0.0006535838463876697
189	0x3f253cbcc59065d9	0.0001620274004217454
190	0xbefb2e76fc321b03	-2.5922301358362157e-05
191	0xbf44d439cb5ed37f	-0.0006356508445067715
192	0xbf3afc0af148f08c	-0.00041175143386219175
193	0xbf4eaa0d3b26c66a	-0.000935799084166256
194	0xbf4d44d12ee74504	-0.0008932134058402823
195	0xbf50e0384ecd47b8	-0.0010300207024624818
196	0xbf57ffcccd8cdf30	-0.0014647960690136845
197	0xbf52d413969b0b7f	-0.0011491957942985907
198	0xbf4958a35d047df8	-0.0007735059425932325
199	0xbf496edaea2f7ec6	-0.0007761544151172132
200	0xbf496edaea2f7ec6	-0.0007761544151172132
201	0xbf4958a35d047df8	-0.0007735059425932325
202	0xbf52d413969b0b7f	-0.0011491957942985907
203	0xbf57ffcccd8cdf30	-0.0014647960690136845
204	0xbf50e0384ecd47b8	-0.0010300207024624818
205	0xbf4d44d12ee74504	-0.0008932134058402823
206	0xbf4eaa0d3b26c66a	-0.000935799084166256
207	0xbf3afc0af148f08c	-0.00041175143386219175
208	0xbf44d439cb5ed37f	-0.0006356508445067715
209	0xbefb2e76fc321b03	-2.5922301358362157e-05
210	0x3f253cbcc59065d9	0.0001620274004217454
211	0x3f456aa89f6a3714	0.0006535838463876697
212	0x3f4dafb82755a2c2	0.0009059571445223168
213	0x3f31c2fdc4fddae6	0.00027102180046460614
214	0x3f3ccc9383968ac3	0.0004394397870674355
215	0x3f4e7ecb64534c0f	0.0009306424259655238
216	0x3f54c5a823d7a0a2	0.0012678281776690521
217	0x3f525d8683f6c5ec	0.0011209310176635246
218	0x3f59147514dbcb86	0.0015307563184563124
219	0x3f5e5c061171857c	0.0018529948481716676
220	0x3f636898d5cad08d	0.002369211679559119
221	0x3f62a90bc2033eb8	0.002277873005460975
222	0x3f65561df3f4081a	0.0026045403498082932
223	0x3f61a34d4a5acf2e	0.002153063733965419
224	0x3f60184b69fbfd0f	0.001964709561320561
225	0x3f591bf58872a0ea	0.0015325448783106107
226	0x3f58b411090018a8	0.0015077749594652277
227	0x3f54891c508f1f24	0.0012533928404411887
228	0x3f47da677192f8f1	0.0007279400916997675
229	0x3f561e97168217a3	0.0013500667064660708
230	0x3f5d73629ea070d4	0.0017975295145396435
231	0x3f5d416791a33989	0.0017856131949432771
232	0x3f5c654ffc31484b	0.0017331391434436568
233	0x3f61c62673938cd3	0.002169680691268641
234	0x3f62cc8f5fbe0bb7	0.0022948074601471763
235	0x3f62caf5066938de	0.0022940431256649315
236	0x3f61a13b14f54a41	0.0021520761435252227
237	0x3f64ac4c7c608442	0.002523564707204191
238	0x3f66213b80a01697	0.002701393333157064
239	0x3f659eaf17b6e651	0.0026391429689425557
240	0x3f64ca70367bddd1	0.002537936368635953
241	0x3f66f8d55b5a0af3	0.0028041998983224735
242	0x3f6746277a9c57c0	0.0028410693238453966
243	0x3f60cff1e47c2f80	0.002052280851676913
244	0x3f6394bef418b9e6	0.002390263515528834
245	0x3f5bb7801f67399a	0.0016916991422593953
246	0x3f549a6ae3d073ac	0.001257519135158018
247	0x3f4d1260c4607d54	0.0008872005935280183
248	0x3f4368d6da6bebe2	0.0005923317993102829
249	0x3f49ff5007736734	0.0007933750884163483
250	0x3f453031fa3e8f8f	0.0006466144591183875
251	0x3f5617c01dba5418	0.0013484359869029346
252	0x3f511224f6908c1c	0.0010419236152834415
253	0x3f4e8195a7f9edc4	0.0009309750311809408
254	0x3f4dc1d0ab3b454c	0.0009081143275243924
255	0x3f5e23bd472a0dfd	0.0018395756166292847

time_axis f8 [40]
0	0xbfd3333333333333	-0.3
1	0xbfd28f5c28f5c28f	-0.29
2	0xbfd1eb851eb851ec	-0.28
3	0xbfd147ae147ae148	-0.27
4	0xbfd0a3d70a3d70a4	-0.26
5	0xbfd0000000000000	-0.25
6	0xbfceb851eb851eb8	-0.24
7	0xbfcd70a3d70a3d71	-0.23
8	0xbfcc28f5c28f5c29	-0.22
9	0xbfcae147ae147ae1	-0.21
10	0xbfc999999999999a	-0.2
11	0xbfc851eb851eb852	-0.19
12	0xbfc70a3d70a3d70a	-0.18
13	0xbfc5c28f5c28f5c3	-0.17
14	0xbfc47ae147ae147b	-0.16
15	0xbfc3333333333333	-0.15
16	0xbfc1eb851eb851ec	-0.14
17	0xbfc0a3d70a3d70a4	-0.13
18	0xbfbeb851eb851eb8	-0.12
19	0xbfbc28f5c28f5c29	-0.11
20	0xbfb999999999999a	-0.1
21	0xbfb70a3d70a3d70a	-0.09
22	0xbfb47ae147ae147b	-0.08
23	0xbfb1eb851eb851ec	-0.07
24	0xbfaeb851eb851eb8	-0.06
25	0xbfa999999999999a	-0.05
26	0xbfa47ae147ae147b	-0.04
27	0xbf9eb851eb851eb8	-0.03
28	0xbf947ae147ae147b	-0.02
29	0xbf847ae147ae147b	-0.01
30	0x0000000000000000	0.0
31	0x3f847ae147ae147b	0.01
32	0x3f947ae147ae147b	0.02
33	0x3f9eb851eb851eb8	0.03
34	0x3fa47ae147ae147b	0.04
35	0x3fa999999999999a	0.05
36	0x3faeb851eb851eb8	0.06
37	0x3fb1eb851eb851ec	0.07
38	0x3fb47ae147ae147b	0.08
39	0x3fb70a3d70a3d70a	0.09

dx f8 []
0	0x3f9999999999999a	0.025

dt f8 []
0	0x3f847ae147ae147b	0.01
