MB_FB_model/STkernels-good parameters.npz (npz, 98265 bytes, 4 tensors)

ST_kernel f8 [30, 400]
0	0xbf7916ce21c91bf5	-0.006125264361407358
1	0xbf7904e3baedadf4	-0.006108178683330124
2	0xbf795fd856271b14	-0.006194920601450677
3	0xbf7987d7fea7e4ac	-0.006233066300859107
4	0xbf79f5f996f2cb41	-0.006338095626392371
5	0xbf7a7343a4c3a95f	-0.006457580788472888
6	0xbf7ad1eb9a31768f	-0.006547851869155643
7	0xbf7b83fb2f93655e	-0.006717663950632639
8	0xbf7bcb1594449c7c	-0.006785473149910289
9	0xbf7c229433e7d335	-0.006868914525047389
10	0xbf7c714f22de5487	-0.00694399750309061
11	0xbf7cafec577ae486	-0.007003710946883795
12	0xbf7c7d906447b81e	-0.006955684690622048
13	0xbf7cb13e1ac3def5	-0.00700496921148618
14	0xbf7ca66e42edab71	-0.006994658192392631
15	0xbf7cdd4c43a556c5	-0.0070469836303652155
16	0xbf7c5f349ef71e8f	-0.00692673258840383
17	0xbf7bd79871d25c01	-0.006797404753476678
18	0xbf7bbb311a915d48	-0.006770316898005398
19	0xbf7b21bd63f2bd78	-0.006623973661745601
20	0xbf7b14fce0437109	-0.0066118123979459565
21	0xbf7ab2be1500983a	-0.006518118389101041
22	0xbf7a86e3f22c82b1	-0.006476297773389803
23	0xbf7a507b3980b9a3	-0.006424409242795556
24	0xbf79e00e59128b62	-0.0063171921221137645
25	0xbf7957d318330d73	-0.006187271678928285
26	0xbf78bd342e6eaecc	-0.0060398138365759906
27	0xbf78418e1fff18d1	-0.005921893287398742
28	0xbf780b98bd5e7b54	-0.005870434417288479
29	0xbf77ee4c26fb9f84	-0.005842492551643267
30	0xbf7765596506147f	-0.005711888501882644
31	0xbf76d35718a6ce1f	-0.005572643489745426
32	0xbf76b779bf410884	-0.005546069693140979
33	0xbf766fabc2fa97c4	-0.0054775914610782385
34	0xbf7604dabad755fa	-0.005375723279447348
35	0xbf76121c13dbe3de	-0.005388364484809364
36	0xbf75dfb300800b4a	-0.005340289331800483
37	0xbf75f6825799971d	-0.005362042569321959
38	0xbf75bc6af06717ae	-0.005306642275575797
39	0xbf753fe754fee9d2	-0.0051878963858435646
40	0xbf75255a0d1945a2	-0.005162574541445338
41	0xbf754900bcfc2b9c	-0.005196574100191944
42	0xbf758549c87fb75a	-0.005254066672916691
43	0xbf75f2d49b1199a6	-0.005358534327660902
44	0xbf761886e8e76e23	-0.005394484511693362
45	0xbf765aface57ed58	-0.005457858763743793
46	0xbf76cc5593e8e53f	-0.005565962112592359
47	0xbf7737eb272e5b3e	-0.005668562475782233
48	0xbf77a10cb75d88fe	-0.005768823311742331
49	0xbf779d5290991280	-0.005765268820657199
50	0xbf77c466c001c1a0	-0.005802537314693629
51	0xbf77c53a7910d450	-0.005803326043907722
52	0xbf77dcf5b10c862e	-0.0058259579971334085
53	0xbf77f6004bee1ab2	-0.005849839361764241
54	0xbf7863c87932088f	-0.005954535579009725
55	0xbf78f184d4c75a11	-0.006089705344911171
56	0xbf794a34de89b562	-0.006174284477862587
57	0xbf798e600dd8c340	-0.0062392952072947705
58	0xbf79da27ae0df2a4	-0.006311564445124294
59	0xbf7a31f1cee5090a	-0.006395287097179523
60	0xbf7a6ec262e225b4	-0.006453284570065266
61	0xbf7aacbc626a7312	-0.006512390019136631
62	0xbf7ac1c0b85f1065	-0.006532433331759878
63	0xbf7afd8b89f7c08d	-0.006589455675097733
64	0xbf7a7582e8a5019a	-0.006459723818182184
65	0xbf7a820baf456a1e	-0.006471677439857019
66	0xbf7b06942560be75	-0.0065980708077827315
67	0xbf7b74d76b8a0c33	-0.006703225598019324
68	0xbf7bd4c6df0f3333	-0.006794716683498336
69	0xbf7bddac70d06db7	-0.006803201290519415
70	0xbf7ba1af3806a860	-0.006745991181029337
71	0xbf7bd2034d1eeff2	-0.006792080779572262
72	0xbf7be9c7ec724605	-0.006814747764239741
73	0xbf7bfe39e312bbeb	-0.006834245797263864
74	0xbf7c36293daf7a7c	-0.006887589547629799
75	0xbf7cac587032b264	-0.007000298940664427
76	0xbf7cbac653ade7af	-0.0070140597480249775
77	0xbf7c88fcf8a175be	-0.0069665795982393735
78	0xbf7c6c6b8ac2849c	-0.00693933495145518
79	0xbf7beb54c75faafe	-0.006816226165009763
80	0xbf7bc687dd9ada03	-0.00678113052861429
81	0xbf7b6804cf59e060	-0.006690996922422782
82	0xbf7a9b5a1ce785ae	-0.006495811465783969
83	0xbf79f3817b4e8ab0	-0.006335740840685375
84	0xbf78f362f7f2f7f7	-0.006091486545470196
85	0xbf78789bb016b96f	-0.0059743959003938215
86	0xbf77afa7fbbd37f7	-0.005782753167137492
87	0xbf7728ba647c03ca	-0.005654075713892712
88	0xbf76b17527aeb644	-0.005540330540424746
89	0xbf7666b071a161d0	-0.005469025834905897
90	0xbf75e568582b7cd0	-0.005345733256688592
91	0xbf75401948082677	-0.005188082461708646
92	0xbf746c4aa3eef790	-0.004986087383199847
93	0xbf746c8cdf1d4b35	-0.004986334113555914
94	0xbf73dd98bc4679e2	-0.004850002882817313
95	0xbf735dde8a6509b6	-0.004728192614779683
96	0xbf725b5d06a6e2f7	-0.004481662161588621
97	0xbf71835c265a7c8f	-0.004275665245273021
98	0xbf70ba49c35006b2	-0.00408390821121578
99	0xbf6fc710acaf6ddc	-0.003879101340755515
100	0xbf6e789f0c898c5a	-0.0037196260857839504
101	0xbf6d9fc84c32684c	-0.0036162292540895865
102	0xbf6b7601fb859155	-0.0033521689148747016
103	0xbf6a4d375183a965	-0.0032106476247594656
104	0xbf689e5f9702f299	-0.0030052058210386476
105	0xbf670f49afb2c62e	-0.00281490699634259
106	0xbf667b61ee3ef035	-0.0027443802555051863
107	0xbf65c0f1ae12b7d5	-0.0026554794609045898
108	0xbf64e6d93b599044	-0.00255148342221115
109	0xbf636d19f7af4885	-0.0023713595560162525
110	0xbf621e71f80a2135	-0.002211783023373349
111	0xbf6054ca7a63eec8	-0.0019935564661162954
112	0xbf5eda3f416caf20	-0.0018830888490794576
113	0xbf5aa22fb3953edd	-0.0016255822977945735
114	0xbf576c58016450eb	-0.001429639761743091
115	0xbf543d170517f8e7	-0.001235268097274972
116	0xbf50e65dcc58f4a5	-0.001031486129604611
117	0xbf4b07a450367c18	-0.0008248855887592636
118	0xbf41193ffa62f490	-0.0005218088524753407
119	0xbf39b8b6a0f5469e	-0.000392479502768864
120	0xbf1bdd84b1de1f7d	-0.00010629770664938132
121	0x3f26b917c6b91a92	0.0001733628772504115
122	0x3f3cb7e0bd1c0891	0.00043820606980216845
123	0x3f4b7060610f8d11	0.000837370929840738
124	0x3f52d43f7a70329f	0.0011492366700195723
125	0x3f59bf66f0eb8ed3	0.0015715127262234021
126	0x3f608cb48705c4a2	0.002020218460693516
127	0x3f641be35c70869d	0.002454704346306637
128	0x3f6849a26177a3d3	0.0029647990702312637
129	0x3f6cfa2d265f49dd	0.003537262137777149
130	0x3f717238363222cb	0.004259318901980345
131	0x3f7474784694c277	0.004993886782629012
132	0x3f77c449092f01f6	0.005802426620846726
133	0x3f7beb3c6c5b87ac	0.0068161354335830975
134	0x3f8062c599ea3324	0.00800089240990471
135	0x3f832ef734b37872	0.009366923614319431
136	0x3f8616a9a9989ac7	0.010785413253939237
137	0x3f895ec8d8a6aa75	0.012387818442978852
138	0x3f8d4080025d2ccc	0.014283180305616837
139	0x3f90e12969f94e43	0.016483924000864524
140	0x3f93754d7c9fd701	0.01900216172358338
141	0x3f96510ab7ed63a4	0.02179352519610557
142	0x3f996957d21154ec	0.02481591434146406
143	0x3f9cdc583ccbb5d2	0.02818429823940056
144	0x3fa05e1552ed37d5	0.03196779858863833
145	0x3fa2890256a1b75e	0.03620154674068375
146	0x3fa4f2a0f4443217	0.040913610284494854
147	0x3fa79ba2c4fd80c8	0.046109282061253476
148	0x3faa7da9870f1f4f	0.05173997663183504
149	0x3fadba51e21543cd	0.05806213269045877
150	0x3fb0a543ccee3f9a	0.06502174142064945
151	0x3fb2954bb6262bb0	0.07259057232856381
152	0x3fb4b4f57e6a7a15	0.08088621460272123
153	0x3fb701fbe6d55a50	0.08987402329999239
154	0x3fb983eed47adb3a	0.0996693867444777
155	0x3fbc3813d59c94c0	0.11023067441108747
156	0x3fbf24b9352a7898	0.12165410564418477
157	0x3fc120bdf04a04af	0.13381170494907255
158	0x3fc2ceb9e563da2e	0.1469337816303819
159	0x3fc49bbfaef8ae96	0.16100307506109307
160	0x3fc687ca4c44dd83	0.1760189888388873
161	0x3fc8931a481bc5e7	0.1919892170040349
162	0x3fcabdfa02fb4fb2	0.20892262597646788
163	0x3fcd0aa01cfee1a6	0.2268867627697208
164	0x3fcf7677a00200b4	0.2458028346336555
165	0x3fd102f1f4442db4	0.2658047566808037
166	0x3fd25a960de05c2b	0.28677893977277574
167	0x3fd3c12665f0478a	0.30866393999996744
168	0x3fd53721aa66e5e6	0.33148996010603893
169	0x3fd6bb1cfbce7c4d	0.3551704844521211
170	0x3fd84d66bac67b6c	0.37972419967439097
171	0x3fd9eb278ee75862	0.40497769313276966
172	0x3fdb93567151bbf3	0.43086777750335087
173	0x3fdd475e60e461de	0.45748099767800265
174	0x3fdf05c82d1f6061	0.48472790152073314
175	0x3fe0657cbb411d2c	0.5123885781585265
176	0x3fe14b4a0fc905ad	0.5404405887895131
177	0x3fe2339a37179356	0.568799121476881
178	0x3fe31dc7c892b5b8	0.5973853032534668
179	0x3fe407441c9ac85a	0.6258869703945138
180	0x3fe4efd291bf57fb	0.6542752119664778
181	0x3fe5d7df0cacd2dd	0.6826014754829789
182	0x3fe6bb8471ce8306	0.7103903029238559
183	0x3fe79b446b73ac71	0.737703523508925
184	0x3fe875a30804bb7d	0.7643599659548809
185	0x3fe949c11d807b09	0.790253217335562
186	0x3fea15ae3117d555	0.8151465376710499
187	0x3fead9f517107412	0.8391061258768124
188	0x3feb94581c6be96a	0.8618584208591475
189	0x3fec43f944632192	0.8832975707710367
190	0x3fece74a4780d869	0.903233661322486
191	0x3fed7d5b4096879e	0.9215523015484341
192	0x3fee051c1fb28929	0.9381237620439481
193	0x3fee7e7f20d59255	0.9529414788526746
194	0x3feee8aa35e85da4	0.965901475227771
195	0x3fef42a3f41630c9	0.9768848197286611
196	0x3fef8c3b48f9c958	0.9858681130702207
197	0x3fefc3faf49313a3	0.9926733757825911
198	0x3fefeaebdf32fc7c	0.9974269255980199
199	0x3ff0000000000000	1.0
200	0x3ff0000000000000	1.0
201	0x3fefeaebdf32fc7c	0.9974269255980199
202	0x3fefc3faf49313a3	0.9926733757825911
203	0x3fef8c3b48f9c958	0.9858681130702207
204	0x3fef42a3f41630c9	0.9768848197286611
205	0x3feee8aa35e85da4	0.965901475227771
206	0x3fee7e7f20d59255	0.9529414788526746
207	0x3fee051c1fb28929	0.9381237620439481
208	0x3fed7d5b4096879e	0.9215523015484341
209	0x3fece74a4780d869	0.903233661322486
210	0x3fec43f944632192	0.8832975707710367
211	0x3feb94581c6be96a	0.8618584208591475
212	0x3fead9f517107412	0.8391061258768124
213	0x3fea15ae3117d555	0.8151465376710499
214	0x3fe949c11d807b09	0.790253217335562
215	0x3fe875a30804bb7d	0.7643599659548809
216	0x3fe79b446b73ac71	0.737703523508925
217	0x3fe6bb8471ce8306	0.7103903029238559
218	0x3fe5d7df0cacd2dd	0.6826014754829789
219	0x3fe4efd291bf57fb	0.6542752119664778
220	0x3fe407441c9ac85a	0.6258869703945138
221	0x3fe31dc7c892b5b8	0.5973853032534668
222	0x3fe2339a37179356	0.568799121476881
223	0x3fe14b4a0fc905ad	0.5404405887895131
224	0x3fe0657cbb411d2c	0.5123885781585265
225	0x3fdf05c82d1f6061	0.48472790152073314
226	0x3fdd475e60e461de	0.45748099767800265
227	0x3fdb93567151bbf3	0.43086777750335087
228	0x3fd9eb278ee75862	0.40497769313276966
229	0x3fd84d66bac67b6c	0.37972419967439097
230	0x3fd6bb1cfbce7c4d	0.3551704844521211
231	0x3fd53721aa66e5e6	0.33148996010603893
232	0x3fd3c12665f0478a	0.30866393999996744
233	0x3fd25a960de05c2b	0.28677893977277574
234	0x3fd102f1f4442db4	0.2658047566808037
235	0x3fcf7677a00200b4	0.2458028346336555
236	0x3fcd0aa01cfee1a6	0.2268867627697208
237	0x3fcabdfa02fb4fb2	0.20892262597646788
238	0x3fc8931a481bc5e7	0.1919892170040349
239	0x3fc687ca4c44dd83	0.1760189888388873
240	0x3fc49bbfaef8ae96	0.16100307506109307
241	0x3fc2ceb9e563da2e	0.1469337816303819
242	0x3fc120bdf04a04af	0.13381170494907255
243	0x3fbf24b9352a7898	0.12165410564418477
244	0x3fbc3813d59c94c0	0.11023067441108747
245	0x3fb983eed47adb3a	0.0996693867444777
246	0x3fb701fbe6d55a50	0.08987402329999239
247	0x3fb4b4f57e6a7a15	0.08088621460272123
248	0x3fb2954bb6262bb0	0.07259057232856381
249	0x3fb0a543ccee3f9a	0.06502174142064945
250	0x3fadba51e21543cd	0.05806213269045877
251	0x3faa7da9870f1f4f	0.05173997663183504
252	0x3fa79ba2c4fd80c8	0.046109282061253476
253	0x3fa4f2a0f4443217	0.040913610284494854
254	0x3fa2890256a1b75e	0.03620154674068375
255	0x3fa05e1552ed37d5	0.03196779858863833

time_axis f8 [40]
0	0xbfd3333333333333	-0.3
1	0xbfd28f5c28f5c28f	-0.29
2	0xbfd1eb851eb851ec	-0.28
3	0xbfd147ae147ae148	-0.27
4	0xbfd0a3d70a3d70a4	-0.26
5	0xbfd0000000000000	-0.25
6	0xbfceb851eb851eb8	-0.24
7	0xbfcd70a3d70a3d71	-0.23
8	0xbfcc28f5c28f5c29	-0.22
9	0xbfcae147ae147ae1	-0.21
10	0xbfc999999999999a	-0.2
11	0xbfc851eb851eb852	-0.19
12	0xbfc70a3d70a3d70a	-0.18
13	0xbfc5c28f5c28f5c3	-0.17
14	0xbfc47ae147ae147b	-0.16
15	0xbfc3333333333333	-0.15
16	0xbfc1eb851eb851ec	-0.14
17	0xbfc0a3d70a3d70a4	-0.13
18	0xbfbeb851eb851eb8	-0.12
19	0xbfbc28f5c28f5c29	-0.11
20	0xbfb999999999999a	-0.1
21	0xbfb70a3d70a3d70a	-0.09
22	0xbfb47ae147ae147b	-0.08
23	0xbfb1eb851eb851ec	-0.07
24	0xbfaeb851eb851eb8	-0.06
25	0xbfa999999999999a	-0.05
26	0xbfa47ae147ae147b	-0.04
27	0xbf9eb851eb851eb8	-0.03
28	0xbf947ae147ae147b	-0.02
29	0xbf847ae147ae147b	-0.01
30	0x0000000000000000	0.0
31	0x3f847ae147ae147b	0.01
32	0x3f947ae147ae147b	0.02
33	0x3f9eb851eb851eb8	0.03
34	0x3fa47ae147ae147b	0.04
35	0x3fa999999999999a	0.05
36	0x3faeb851eb851eb8	0.06
37	0x3fb1eb851eb851ec	0.07
38	0x3fb47ae147ae147b	0.08
39	0x3fb70a3d70a3d70a	0.09

dx f8 []
0	0x3f9999999999999a	0.025

dt f8 []
0	0x3f847ae147ae147b	0.01
